TrainResult/Encoder_weight.pkl (torch, 459818 bytes, 24 tensors)

cov1.1.weight f4 [64, 1, 3, 3]
00000000: 40b5 453e e39f 263e 4d15 653e 5ceb 03bc
00000010: 654a 133e 6d27 99be c225 afbe 9f1e 783e
00000020: 3ef5 913e e26e a93b ec82 863e 4e5c 3e3d
00000030: 16f3 bfbb 06b0 87bc d61c b83c 4db1 18be
00000040: cf09 f33d 54a7 87bb 35fe b2bd cb91 4f3e
00000050: 759e 283e 6cda 8abe 8d81 adbe f7a8 723e
00000060: 5db0 b23d 0492 463d c149 a8be f5cc 07bc
00000070: b425 713e a2b8 87be 6f7f 1c3e d3a5 9b3d
00000080: f031 c7bd 50aa c43c f627 6a3e 4c21 99be
00000090: f69d 0fbe 7a20 983e 39c9 9d3e 4e1e 15be
000000a0: 95ac 793e 32c0 b3bd 0bd5 febc 8b6e 0fbc
000000b0: 0d7f a93d cefb 9d3e 32f6 563e e851 aebe
000000c0: ef55 a9be 6a83 01bb dfc4 803e b592 4cbe
000000d0: 0432 4e3e 97c3 163e 35b5 72be 609d 41be
000000e0: 83cf a13e e627 82be 0cc7 6f3e 617b 9dbe
000000f0: ab18 53be 5510 843e d52c a9be 4a68 cb3d
00000100: 0f53 1f3e a54f d8bc 9acd 9ebe dbcc 6d3e
00000110: 5c10 45be 42ea 653d 2a7b 4bbe 7ac9 853e
00000120: 3ade 6bbe 97d5 833d 1d77 473e 1482 95be
00000130: 63f2 a03d 8c80 ffbd a269 103e 62b4 a83e
00000140: d123 803e 2050 97be e72c aabd 6ac5 3f3e
00000150: 3d94 533e 7dbd 1dbe 2d40 febd 1ce6 11be
00000160: b9cb 7c3e 1beb 983e d55b 55be e68f 42be
00000170: 0b1b 0e3e 0282 963d 286e 223e 2f74 47be
00000180: e7e6 b0bc 8873 d13d 50c9 a53e 765b 8cbe
00000190: a650 8cbd e25f 343e a8d9 82be c37b 98be
000001a0: ce4b 6c3d e195 333e d545 233c 31cb 933e
000001b0: 8296 9a3d b03a dcbc 68b0 333e 6c62 94be
000001c0: 2a97 723d f2f2 1fbd 02bc 3fbe 4441 593d
000001d0: ac6a 3cbe d312 133e c183 013d d0d8 423e
000001e0: 6675 963e 9492 66be b3f0 9abe 4565 e93a
000001f0: 081b 18bd 02de a7be 722e 91be d2cb d0bd
00000200: 38cb d43d 0a4d 84bd fc23 90be 06b3 7dbd
00000210: 74b7 a5be 308c 4ebe 6e6a debc 70f4 123e
00000220: a45a 84be 2c1f 4b3e 32df b93b 4d59 99be
00000230: 67af 86bd e1ed 293e 3a17 7e3e 8d2c ad3d
00000240: ccf2 4d3e d9d1 cbbd 0bbe cc3c b367 7a3d
00000250: 6e61 283e e60b 373e 9d8e 1e3e 7f8e aebe
00000260: 95d4 a43c 474e a93b 5590 633e 6cce f2bd
00000270: 2dd8 51be 37c8 ef3c a06d 093e da85 cf3d
00000280: 1f66 00be c917 84be 7c51 d23d a12c a9bd
00000290: 9e1a ac3d 7edc 2e3e 666e 853e ba69 de3c
000002a0: 8041 04be c63f 923e 1378 e1bd 3e4c d63c
000002b0: 74eb 0b3e 10d7 1dbd 8eb7 f53c 8842 8d3e
000002c0: b175 703e 74a4 9abe 0e58 55be 2c19 74bd
000002d0: 4b54 acbe f539 44be 8246 08be 8ffc 55be
000002e0: c5c7 f2bd d333 953d f5fb d7bd ab49 72be
000002f0: 2e6d f13d 4940 483e bc7d 9a3e 8e14 293e
00000300: 9c49 5bbe e0c4 95bc 6e2f 96bd e6cc 3b3e
00000310: 1454 9b3d 0a05 97be ca36 3a3e 4a22 4f3e
00000320: 2c05 f2bd 9851 a4be 3234 9a3e d73f 5d3e
00000330: 0df2 e63d 9b89 87be 9224 483e 92d6 8c3e
00000340: 4a06 7d3e 64dd 2c3e b7e9 6abe 5ff2 7a3e
00000350: 2569 d43d 6170 103d 6902 84bd 8f94 a9be
00000360: 98de 3bbd 4800 2e3d 008a 933e 107f 5b3e
00000370: e4f9 f9bd 82ca 933c 8793 3bbe caad 99bc
00000380: 317d ce3d bcf8 2b3d 219d 813e e6aa 923e
00000390: 8dc1 70bd 6abe 903e de40 1ebe 75e4 dbbd
000003a0: 24a8 653e 7d4e 7bbe f2aa 84be 49dd f0bd
000003b0: c307 9dbd 3d5a a63e 760f ebbd 5f8d 67be
000003c0: ecbf 89bd 1b14 86be 61ed 2bbe c8a9 cfbd
000003d0: 9b5b 71be 6735 e53d 8eca 09bd edde 0b3e
000003e0: 3808 7abe 4b52 833e 2a51 9b3e 47ae 493e
000003f0: a983 d13d c70a 1e3e 39cb 3a3d cf48 b1bd
0.19307423 0.1627193 0.22371407 -0.0080517195 0.14383848 -0.29912892 -0.34208494 0.24230431
0.28507417 0.005170689 0.2627176 0.046474747 -0.0058578355 -0.016563427 0.022474688 -0.14911385
0.11867105 -0.00413982 -0.087398924 0.2027046 0.16466697 -0.27119768 -0.33887902 0.23697267
0.08725045 0.048479095 -0.3286877 -0.008288612 0.23549539 -0.2650805 0.15282987 0.07599988
-0.09726322 0.024006993 0.22866806 -0.29908216 -0.14025101 0.29712278 0.30817583 -0.14562342
0.24382241 -0.08776893 -0.031107446 -0.008754383 0.08276186 0.30856174 0.20992354 -0.34046865
-0.33073375 -0.0019762167 0.251502 -0.1997784 0.20136267 0.14723049 -0.23701937 -0.1890769
0.3160363 -0.25421065 0.23415774 -0.30758193 -0.20614879 0.2579371 -0.33042017 0.09932001
0.15559028 -0.026405165 -0.31016237 0.23222677 -0.19244522 0.05613161 -0.19871202 0.26130277
-0.23033991 0.064372234 0.19479032 -0.29200804 0.078587316 -0.1247569 0.14102796 0.3295012
0.25027326 -0.29553318 -0.08309346 0.18727651 0.20662017 -0.15404315 -0.12414584 -0.14247936
0.24687089 0.2986687 -0.20835812 -0.19000205 0.13877504 0.07349016 0.15862334 -0.19477914
-0.021594478 0.10227114 0.32380152 -0.2741353 -0.0685132 0.17614701 -0.25556684 -0.29781923
0.05768948 0.17537643 0.00996538 0.2886596 0.07548238 -0.026883453 0.17547762 -0.2898134
0.059226193 -0.03905005 -0.18724063 0.053040758 -0.18400067 0.1436265 0.03161979 0.1902802
0.29386443 -0.22516853 -0.30261764 0.001780667 -0.037135154 -0.32786566 -0.28355747 -0.10195126
0.103903234 -0.064600065 -0.28152454 -0.06193831 -0.32366526 -0.20170665 -0.027150359 0.14351058
-0.25850403 0.1983611 0.005672359 -0.29950944 -0.06576424 0.1659465 0.24813548 0.08455763
0.20112151 -0.09952135 0.024992963 0.06113405 0.16443416 0.17875633 0.1548409 -0.3409309
0.020120898 0.005166802 0.22223027 -0.11855778 -0.20492621 0.029270275 0.13420725 0.10132952
-0.12538956 -0.25799397 0.10269448 -0.082604654 0.08403514 0.17076299 0.2606079 0.027150024
-0.12915611 0.2856428 -0.110092305 0.026159402 0.13664037 -0.038535178 0.029994752 0.27589822
0.23482396 -0.30203593 -0.20834371 -0.05959432 -0.3365806 -0.19162734 -0.13308147 -0.20897125
-0.11854509 0.07285275 -0.10546104 -0.23660915 0.117884025 0.19555773 0.30174053 0.16511747
-0.21414798 -0.018282354 -0.07333265 0.18339881 0.07584396 -0.29496032 0.18184963 0.20227924
-0.11817393 -0.320935 0.30117947 0.21606384 0.11276636 -0.26472172 0.195452 0.27507454
0.2470943 0.16881329 -0.22940718 0.2450652 0.10371617 0.035263423 -0.06445772 -0.33121154
-0.04586658 0.042480737 0.28816223 0.21435189 -0.12205866 0.0180409 -0.18317996 -0.018759627
0.10082472 0.04198526 0.25315192 0.2864601 -0.058778334 0.28270274 -0.15454432 -0.10736934
0.22427422 -0.2454166 -0.2591167 -0.11760957 -0.07667496 0.3249072 -0.11477558 -0.22612523
-0.06726059 -0.26187214 -0.16789772 -0.10139805 -0.23570101 0.11191826 -0.033640437 0.13659258
-0.24417198 0.25648722 0.3033536 0.19695388 0.1023019 0.15433799 0.045603964 -0.08656465

cov1.1.bias f4 [64]
00000000: 3a6a 443e 5a2e 28be 5cea ab3c 7833 50be
00000010: b973 543e 68c6 debc 1e3f 9dbe 84ff abbe
00000020: 7bd4 94be afb2 4bbe 5f2e 1f3d 4614 adbe
00000030: 69b4 69be da89 103e 6ca9 753e 6c6f 5b3e
00000040: 95c7 7f3e 616d 08be 6a6f f7bd a91f 96be
00000050: 4268 673e 4748 24be 1552 a23e fffb 413d
00000060: 876a 843e 6be3 2e3d 4912 9abd 8e67 9ebe
00000070: aca6 9a3e 7b71 7d3b 0f44 a33e a878 c0bd
00000080: 504c 6e3e 51f5 e83d 3f70 86be 9f39 a4be
00000090: 4953 bb3b 93ad 3a3d d7c5 703e 92dd 11be
000000a0: 7232 803e 1042 79ba 5f7f 113e d284 a53d
000000b0: 1488 a13e e378 633d 4a81 92be cbf6 b53d
000000c0: 2eab a53e 45c0 85bd 6417 a73d d402 b13d
000000d0: da73 9dbe bfe8 75be 1583 c63c 3905 5dbd
000000e0: a5e0 a93e 45fb e33d 0587 4b3e 76d1 0fbe
000000f0: df56 0b3e 2e9d 55be 9ec3 02bd 6525 203e
0.19181147 -0.16423932 0.020985775 -0.20332134 0.2074727 -0.027194217 -0.30712217 -0.3359338
-0.2906836 -0.19892381 0.038862582 -0.3380453 -0.22822727 0.14115086 0.2399041 0.21429223
0.24978478 -0.13322975 -0.120817974 -0.2932103 0.22598365 -0.16043197 0.3170325 0.047359463
0.25862524 0.04269735 -0.07523019 -0.3093838 0.30205286 0.0038672376 0.31887862 -0.09398013
0.23271298 0.113749154 -0.26257512 -0.3207521 0.0057167155 0.04557569 0.2351297 -0.14244679
0.25038487 -0.000950844 0.14208744 0.08081974 0.31549132 0.05553521 -0.28614265 0.08884963
0.32357162 -0.06530813 0.08158758 0.086431175 -0.3075245 -0.24014567 0.024232427 -0.05396006
0.33179203 0.1113191 0.19875725 -0.14044747 0.13607357 -0.2086074 -0.031924836 0.15639265

cov1.2.weight f4 [64]
00000000: 0c35 803f 8f94 7d3f d465 813f 056a 803f
00000010: 0794 803f 9474 803f 81f4 803f 1960 823f
00000020: f9ef 7f3f df8b 803f 33d6 7e3f 25a4 7e3f
00000030: 7162 803f bcdd 7d3f e370 803f 9944 7e3f
00000040: 12b5 7e3f 6630 7f3f a75d 7d3f 9424 7f3f
00000050: 3bd4 7e3f 1817 7e3f d31e 7e3f 4880 7d3f
00000060: d56e 803f a25f 7f3f a0c5 7e3f a5bb 7d3f
00000070: 98ae 7e3f 1ea5 7e3f f1f4 803f 6a28 803f
00000080: 6e32 7e3f 4034 7e3f 76f5 813f 4a67 7e3f
00000090: 91cc 7d3f efa4 803f a1b5 7e3f 960c 813f
000000a0: c0cf 7e3f b23e 813f ac4b 803f 2b5b 803f
000000b0: 669f 803f 585a 803f b12e 823f 2bee 823f
000000c0: db70 7f3f 5606 813f 9b82 813f fb5d 7f3f
000000d0: fee8 803f edda 7e3f 8349 7e3f 9e3b 813f
000000e0: cea8 7d3f cec3 7f3f a302 7e3f 5f29 803f
000000f0: 9a26 803f 283d 7f3f 5e7c 803f 091c 813f
1.0016189 0.9905481 1.01092 1.0032355 1.0045174 1.0035577 1.0074617 1.0185577
0.99975544 1.0042685 0.9954559 0.99469215 1.0030042 0.99166465 1.003445 0.9932342
0.9949504 0.99683225 0.9897103 0.9966519 0.9954259 0.9925399 0.99265784 0.99023867
1.0033823 0.997553 0.995203 0.9911445 0.9948516 0.994707 1.007475 1.0012333
0.992957 0.9929848 1.0153034 0.99376357 0.9914027 1.0050334 0.99495894 1.0081966
0.9953575 1.0097258 1.0023093 1.0027822 1.0048645 1.0027571 1.0170499 1.0228933
0.9978158 1.0080059 1.0117983 0.9975278 1.0071104 0.99552804 0.9933092 1.0096319
0.990857 0.9990815 0.99222773 1.0012625 1.001178 0.9970269 1.0037954 1.0086681

cov1.2.bias f4 [64]
00000000: 9446 84bc 731e 77bc 76bc 3f3c 6c2e 9ebb
00000010: ab9a cfb9 0a9b f7bb a9aa 483c 0bec 0abb
00000020: 7dbe 1ebc c1b6 a5ba 1229 70bc 900a eebb
00000030: ecfa a13c 0ce7 00bc 4474 b53b 4a2c 2bbc
00000040: de09 65bb 67a6 05b9 d85c c9bc ef07 1cbc
00000050: 0b70 60bb f5d9 3ebc 9f64 7abc cd66 99bc
00000060: 36d6 a9bb 9293 5cbc 3d40 373b 3c30 84bc
00000070: 6cd3 80bc 9029 98bb 9e4f 903b de40 6cb9
00000080: 1bca 10bc 89fa 3dbc 8479 f83b d4df 5cbc
00000090: a77a 21bc 3510 123c 8ff2 42bb 0adc b73b
000000a0: 61ec 7bbc b1eb fe3b 9360 103c 2226 fbbb
000000b0: d9fc 8a3b 8d47 683c 7fd5 963b 45e4 463c
000000c0: 8fee babb db9a ab3b fc4f 553c eadd a4bb
000000d0: 6614 c3bb 7ab9 6bbc f0c4 a0bc 67d3 cc3a
000000e0: 0f55 1abc 83c4 b7bb 5362 78bc 8351 89bc
000000f0: 5804 2dbb fd02 2dbc c1db 9b3b b5a9 0bbc
-0.016146936 -0.015082943 0.011702647 -0.0048273113 -0.00039597353 -0.007556324 0.01224772 -0.0021197821
-0.009688971 -0.0012642966 -0.014658229 -0.0072644427 0.01977297 -0.007867586 0.0055375416 -0.010447571
-0.0034948508 -0.00012745858 -0.024580404 -0.009523376 -0.003424647 -0.011648645 -0.015282779 -0.018725777
-0.0051830066 -0.013462918 0.0027961873 -0.016136281 -0.015725814 -0.0046436265 0.0044040224 -0.00022530879
-0.008837248 -0.011595377 0.007582845 -0.013481099 -0.009855903 0.008914997 -0.0029746627 0.0056109475
-0.015376181 0.0077795614 0.008812088 -0.007664458 0.0042415676 0.014177215 0.0046030874 0.012139385
-0.005704708 0.005236966 0.013019558 -0.005031337 -0.0059533594 -0.014387483 -0.019625157 0.0015626968
-0.009419694 -0.005608143 -0.015160161 -0.0167625 -0.0026400294 -0.0105597945 0.0047564213 -0.008524348

cov1.2.running_mean f4 [64]
00000000: df35 063f c8c5 1ebc bce0 0cbe b78d 35be
00000010: 1bea fc3e d79b de3d 1514 34bf 5147 96be
00000020: 5604 80bd 7c98 f7bd fb8b 0f3e e110 e2be
00000030: 4911 dcbe 4fe9 4a3c 0807 e5be 31d7 ac3e
00000040: 051b e73e ba30 81be d730 5d3e e3f2 76be
00000050: e6f9 cebe 3407 873c f1bf 183f 2c40 973e
00000060: 008e d73e a48c a93e f520 1cbf 1aec bdbd
00000070: 299e 0c3f 5172 ddbe 0330 dd3e 8eae a4be
00000080: 7338 363d 109a a9bd 214c c33d c9fe 653c
00000090: bbc5 bbbd f8f3 00bf 4856 bfbe 5abf 33bf
000000a0: d5d9 9e3e 93bc 16be 4999 bebe 47a6 9e3e
000000b0: 349b de3c 289f eb3e 5d1d 0bbf aa7e f33d
000000c0: f3bd 5c3e 8d25 1cbe 935b 0a3e 7465 103f
000000d0: 0452 733e e721 193e 8718 dd3e 3637 0cbd
000000e0: 6ba0 17be bc6e 6d3e ad4a 463f 81a2 583e
000000f0: f616 9d3d 0ad8 ec3d 2165 07be dbac 6c3e
0.5242595 -0.009690709 -0.13757604 -0.17729841 0.49397358 0.10869568 -0.7034314 -0.29351285
-0.06250827 -0.12089631 0.14018242 -0.44153503 -0.42981938 0.012384727 -0.44731927 0.33757928
0.45137802 -0.25232488 0.21600662 -0.24116091 -0.40425032 0.016482927 0.5966788 0.29541147
0.42100525 0.33115113 -0.6098779 -0.092735484 0.54928833 -0.4325128 0.43200693 -0.32164425
0.044487428 -0.08281338 0.09536005 0.014037796 -0.091685735 -0.50372267 -0.37370515 -0.70213854
0.31025568 -0.14720373 -0.37226322 0.30986235 0.027173616 0.46019864 -0.5434168 0.11889394
0.21556835 -0.152487 0.13511495 0.56404805 0.23761755 0.14954339 0.43182775 -0.03423234
-0.14807288 0.23186773 0.77457696 0.2115574 0.07670395 0.11564644 -0.13222171 0.23112814

cov1.2.running_var f4 [64]
00000000: d84f 463c 648b 363b 2964 573b a44d 4b3a
00000010: be77 193c 0f5b 1a3b 40be 883c b658 b339
00000020: 0a55 d63b 4d41 b43a 9e7a e93a 1c6c 2d3b
00000030: 5e7c 9b3b 2068 523b 2f0b 4e3d 07af f83a
00000040: db15 963b d9c7 e03a d360 4a3c 90c2 ad3a
00000050: ad94 2e3d 6de7 883b db73 0c3c 649f 053c
00000060: 84a2 4b3b 3cb6 203c 3073 f73c b6b1 c83b
00000070: 6e03 d83b ac54 ae3c 6bf8 ef3a c8a2 d13b
00000080: dec2 983b e057 af3b cf92 7f3c 39a1 4f3c
00000090: 9727 073b 9263 0b3d 5eeb 1e3d 174f 0b3d
000000a0: 8c1d fc39 3331 383b e42f e73c e062 de3b
000000b0: 14fd 143c 8e88 923c 95fe 0b3c 5358 dc39
000000c0: c9fc e33a 2168 e93a b81e e639 4605 ce3c
000000d0: 9b53 003d 8a0c 873c bddf 983c f17a 063a
000000e0: f7b6 cf3c 0cc6 1a3b a788 0f3d 3a42 5c3c
000000f0: 0ea3 903a 703d 443c 5c06 b33a 67c7 cf3a
0.012103997 0.002785408 0.0032866097 0.0007755405 0.009366928 0.002355281 0.01669228 0.00034207635
0.006540899 0.0013752371 0.0017813032 0.0026462143 0.0047450503 0.003210552 0.050303634 0.0018973061
0.004580242 0.0017149403 0.012352186 0.0013256837 0.042622257 0.0041779787 0.008572544 0.0081556775
0.0031072209 0.009809073 0.030206293 0.0061247004 0.0065922057 0.02128061 0.0018308287 0.006397579
0.004661902 0.0053510517 0.015598967 0.012672716 0.0020622963 0.034030505 0.038798682 0.034010973
0.000480872 0.0028105497 0.028221078 0.006786689 0.009093542 0.01788738 0.008544584 0.00042027477
0.0017394061 0.0017807522 0.00043891906 0.025148999 0.031329732 0.016485471 0.018661374 0.0005130014
0.0253558 0.002361658 0.03504243 0.013443524 0.0011034922 0.0119775385 0.0013658511 0.0015852273

cov2.0.weight f4 [64, 64, 3, 3]
00000000: b795 30bd 318a 42bb fe55 50bc 7af0 1c3c
00000010: e437 0ebd 3eb3 8cbb 86e2 c9bc 4fa1 b4bc
00000020: e398 86bc 709d f33c d7e9 a7bc 25c4 eebc
00000030: 576a 753a 520c bebc b142 2dbd 5d93 1e3b
00000040: 28df 9abc 5660 ebb9 c580 2b3c f5ee 3a3d
00000050: c9ff 0c3d 5359 a6bc 9123 3d3d ff53 613d
00000060: 4977 463d 8a9b d53c 1965 c03c c4b7 d6bc
00000070: 50e9 29bd e7a6 46bc 5c43 0bbc 538a d23b
00000080: e314 4ebd 530a 343c cfd3 dcbb 27e7 1ebd
00000090: 0b77 163c d748 4dbc 3fec 82bc a60a 8e3b
000000a0: 73df c0bc 1aed 4c3c 0223 36bc f175 00bd
000000b0: ec27 473c 5122 cfbc fae9 f83b 1915 f13a
000000c0: 4dc0 0bbd 998b 0f3d 43c8 d7bb 3a62 d9bc
000000d0: e657 6abc f7ed 293c 696b 1b3c e37a 2d3c
000000e0: acf2 323d 3a3a e03c 318e c53c 5f4a 803c
000000f0: 0ad5 443d f4cf 663d e54d 88bc 3058 403c
00000100: ba76 2fbc cbd5 8cbc ff7a 1cbd ae9f 90bc
00000110: fff4 54bc b412 a0bc 63b3 25bd f4f9 793b
00000120: 5b17 603c 13a4 89bb bae9 5e3c f08a b3bb
00000130: bbec f23b 45e8 a73c 8235 98bc c6c4 c83c
00000140: efdb dfbb 157a e73b af33 3abd b495 d53b
00000150: 5bf7 653c 3971 c53c da3f 15bd 6c7d f6bb
00000160: 22dd c0bc d27c 1cbd 024f 803c 8374 2cbd
00000170: c3e2 713c 2a2e b0bb d86e 97bc b30f 9b3c
00000180: e9d5 adbc a2ec b7ba 24e7 23bb f5b4 aebc
00000190: 6981 253d 7a52 b3bc a9a3 83bc 2c46 2d3d
000001a0: 9f80 973b ceab 11bb cac4 283c 8852 083d
000001b0: 1fbf 8b3b 12cd f53c 8fa7 f73c efe6 623c
000001c0: cc51 513d eeda 4e3d ce0c 2c3b 83c3 1abc
000001d0: ecc0 17bc ac2a 0abc 2bd0 413d f243 9cbc
000001e0: 266b 3f3c db6e 753c c0d5 c43c 5963 f53c
000001f0: 270a 053d 4482 473d 6d32 9ebc 90a8 f93b
00000200: bf3b a83c 82e0 fa3b f3ef b4bc 19c8 df3c
00000210: 4d4f b13a 1594 1abb 0d0a 8ebb 6fc4 90bc
00000220: 4246 713c 90c1 783c b17c 2dbd be2f 203c
00000230: 1158 b53c b394 6ebc 6fe6 22bb 7f13 2ebd
00000240: 7963 f13c 8037 2ebd 00de 9abc a484 07bd
00000250: ce2c 823c 1660 423c 8394 aebc ffe6 9f3b
00000260: 5964 463c 578b 353d 6bc7 463d 5e62 90bc
00000270: 1f93 cebc 5baa 8f3c 1d2c 443b bf1d 673c
00000280: 634c cebb 9038 ca3c 6c16 1b3c f876 f63c
00000290: bd49 e53c 55c5 983c 963f 2bbd 0aab 073d
000002a0: 78d9 f23c 3dc3 0fbd 894f 62bc b7b1 b03b
000002b0: 3a4a 1c3b 7cc2 f43c 1a32 3abd 2781 14bc
000002c0: 0a4d 2dbd d956 f83c 120b b3bc 1c77 0abd
000002d0: 255a 40bc b9f6 293d f94d 333c bac9 393c
000002e0: 7911 e33c 8e16 263b ddcd 69bc dfff 15bc
000002f0: 48d4 54bc b8d3 4ab7 0b8f d63c dbbf 9fbc
00000300: 85de 103d a2d7 583b 3894 d43c ab6e 243c
00000310: 019d 1ebd 87bf 763c 68b8 bdbc 59c7 8dbb
00000320: e0b3 39ba 2fdb 293b 9cd7 f5bc 9949 bdbc
00000330: 1505 b53c 7b22 d23c a788 073d 917f 943c
00000340: 67a6 29bb ecee 1dbd 0957 123c c5c2 e83c
00000350: c035 813c 6057 e8bc c6be dd3c ec77 84bc
00000360: db9f 5b3a cf98 acbc 5dae d7bc c7d1 41bb
00000370: 2754 f03c ebb3 00bd fa76 9c3c b8e2 a33c
00000380: 55cc c43c a3cf 47bc b75e 923c 7a51 433c
00000390: 5bc2 063c 6bac 0d3c 3daa f03b 7624 0cbd
000003a0: e65d 963c 3d37 6bbb a50f abbc cf4c e93c
000003b0: 224e 90bb f825 583d bb3b fe3c eb9e 1f3c
000003c0: 881a 333d 947e 72bc eeea 153d 3db2 edbb
000003d0: f8b0 22bd cab8 0c3d 88bc 063d 7528 353c
000003e0: 72f0 d7bb 8d1e 1cbb daba 05bd 0970 fa3c
000003f0: 0d15 12bd 27cc 85bc 7883 fc3c 430a b9bc
-0.04311153 -0.002968442 -0.012715815 0.009578818 -0.03472127 -0.0042938283 -0.024644148 -0.022049574
-0.016430324 0.029738158 -0.020497246 -0.029146263 0.0009361854 -0.023199234 -0.04229993 0.0024196722
-0.018905237 -0.0004489447 0.010467713 0.045638043 0.034423623 -0.020306265 0.046176497 0.055011746
0.048453603 0.026075143 0.023485707 -0.026210673 -0.04148227 -0.012124754 -0.008499946 0.006425181
-0.050312888 0.01098879 -0.0067391167 -0.038794663 0.0091836555 -0.012529573 -0.015981792 0.0043347655
-0.023544049 0.012507701 -0.011116745 -0.031362478 0.012155514 -0.025284918 0.0075962516 0.0018393128
-0.03411894 0.03504524 -0.0065851524 -0.026536096 -0.014303183 0.010371677 0.009486058 0.0105883805
0.04368846 0.027371515 0.024115654 0.015660463 0.048054732 0.056350663 -0.016638706 0.011739776
-0.010709459 -0.017191788 -0.038203236 -0.017654266 -0.012997865 -0.019540168 -0.04045428 0.0038143368
0.013677443 -0.0042004674 0.013605529 -0.005479209 0.0074134744 0.020496497 -0.018580202 0.024507891
-0.006831638 0.007064114 -0.045459446 0.00651809 0.014036025 0.02410184 -0.036437847 -0.0075222757
-0.023542944 -0.038204975 0.015662674 -0.0421033 0.014763537 -0.005376597 -0.018485472 0.018928384
-0.021220164 -0.0014032314 -0.0025009597 -0.021326521 0.04040662 -0.021889914 -0.01606925 0.04230325
0.004623487 -0.0022227648 0.010300824 0.033281833 0.004264727 0.030005012 0.030231265 0.013849004
0.0511034 0.050501756 0.002625275 -0.009446028 -0.009262305 -0.008433025 0.047317665 -0.019075368
0.011683261 0.014980043 0.024027705 0.0299546 0.032480385 0.048708215 -0.019311154 0.007618971
0.020536302 0.007656158 -0.022087073 0.027317094 0.0013527662 -0.00235868 -0.0043346942 -0.017671792
0.014726223 0.015182868 -0.042355243 0.009777008 0.02213672 -0.01456182 -0.0024856587 -0.04249906
0.029466378 -0.042533398 -0.018904686 -0.03308548 0.015890505 0.011863729 -0.02131105 0.004879832
0.012108886 0.044322338 0.048530024 -0.01762503 -0.025216637 0.017537287 0.002993352 0.014106213
-0.006295727 0.024685174 0.009465795 0.030086026 0.027989263 0.018648783 -0.041808687 0.0331221
0.029644713 -0.035098303 -0.013812908 0.005392279 0.0023847953 0.029877894 -0.045457937 -0.009063995
-0.0423098 0.03031485 -0.021855865 -0.033804998 -0.011740242 0.04149506 0.010943883 0.011339599
0.027718293 0.0025343033 -0.014270273 -0.009155243 -0.012990065 -1.2089433e-05 0.026191255 -0.019500664
0.03536846 0.0033087512 0.025949582 0.010036151 -0.03872395 0.015060312 -0.02315922 -0.0043267426
-0.00070839934 0.0025917997 -0.030010037 -0.023106383 0.02209715 0.025651207 0.033089306 0.018127235
-0.0025886537 -0.03855793 0.008931884 0.028413186 0.0157727 -0.028361976 0.027068507 -0.016170464
0.00083780073 -0.021068959 -0.02632826 -0.00295745 0.029337002 -0.031421583 0.019099701 0.020005569
0.024023214 -0.012195501 0.01786743 0.011921281 0.008225049 0.008647065 0.0073445127 -0.03421446
0.018355321 -0.003589108 -0.020881483 0.028479008 -0.0044038454 0.052770585 0.031034341 0.009742479
0.043726474 -0.014800686 0.036601 -0.0072539137 -0.03971955 0.034355916 0.03289464 0.011057009
-0.0065899426 -0.002382192 -0.0326489 0.030571 -0.035664607 -0.016332699 0.030824408 -0.022587901

cov2.0.bias f4 [64]
00000000: 9a83 303d bf42 d53c 202e 053b 16de 18bd
00000010: 4a42 85bc e7cc a93c d481 043b 7906 abbc
00000020: 2c9d efba e5cf 553c 08a6 4bbc 5e32 dbbb
00000030: 6188 29bd d2d4 7a3c 8529 6bbc 021d b73c
00000040: 00b1 9b3c adbf 23bd 7d79 3ebc 8c3a 2b3d
00000050: 0e67 16bd a91c 7cbc 7719 91bc e794 e13c
00000060: d2ee 06bd 23fd ad3a eba8 493c 16be 6a3c
00000070: 3d9f 7bbb aebd 333d e7e7 11bd 1eba 513c
00000080: 9912 c4bb ad94 0c3d 8f24 fdbc e757 e03c
00000090: fda3 2cbd 8e1e ff3c df04 cdbb 2452 153d
000000a0: 4d93 c33c 7b58 353d cfea 54bc 36bf b63c
000000b0: 4c4e 2dbb f328 193d cec5 cf3b a8cc b53c
000000c0: b1fd bd3c 6900 253d c0bb 83bb a583 6fbc
000000d0: 6719 90ba 7b4b 043d 3e97 cc3c aab0 3abc
000000e0: 7101 cabc 782f 9fbc 57ab bbbc 4dd6 f93c
000000f0: a8fd 27bd 6ae3 eabc 6752 123b fda2 07bd
0.043094255 0.026032804 0.0020321682 -0.037321173 -0.01626696 0.020727588 0.0020218985 -0.02087711
-0.0018281094 0.013050054 -0.012429722 -0.006689354 -0.041389827 0.015309529 -0.014353161 0.0223527
0.019005299 -0.03997772 -0.011625645 0.04180388 -0.036719374 -0.0153876925 -0.017712338 0.027536822
-0.0329426 0.0013274293 0.01230834 0.014327547 -0.0038394474 0.043882065 -0.03562155 0.012800721
-0.0059836623 0.034321476 -0.030901222 0.027385665 -0.04214858 0.0311425 -0.006256684 0.03645529
0.02387395 0.044273835 -0.012995436 0.022307973 -0.0026444374 0.037392568 0.006340719 0.022192314
0.023192259 0.040283594 -0.0040201843 -0.014618789 -0.0010993899 0.032298546 0.024974462 -0.011394659
-0.02465889 -0.019431815 -0.02290885 0.030497694 -0.04101339 -0.028672893 0.0022326948 -0.033114422

cov2.1.weight f4 [64]
00000000: 233a 7f3f 82f7 7f3f 1aaa 803f 651d 7e3f
00000010: 9ea3 7e3f 82ea 813f 6743 803f 2acf 823f
00000020: 4dd9 7e3f b861 803f 9801 7d3f 743b 803f
00000030: 34ae 803f c826 803f adb3 803f 003e 7f3f
00000040: 3bdc 803f ef6e 823f ec15 813f 4c20 803f
00000050: a7d3 803f ff4a 813f 912d 803f 3e65 813f
00000060: 0240 7e3f 9a94 7e3f 6ce2 7d3f b405 823f
00000070: 262a 823f 0d06 803f 2c73 813f fa3b 7d3f
00000080: fa07 823f 6fd1 7d3f b8ab 803f bca3 803f
00000090: 9d4a 803f 16b3 7f3f c36d 823f fe9d 7b3f
000000a0: 2933 803f 3e46 813f d1bc 7d3f f645 7f3f
000000b0: 45a9 813f 240d 813f 17f2 7f3f 21d8 803f
000000c0: 8184 7e3f b8b1 7c3f 8945 7f3f 5501 7f3f
000000d0: 4758 803f 3e20 7e3f 7358 7e3f 3ba5 7d3f
000000e0: dd45 803f bd75 803f 6ec3 7e3f 86c4 803f
000000f0: d9a2 803f 32c3 803f 59c1 7f3f bcf2 7c3f
0.99698085 0.9998704 1.0051911 0.992636 0.9946841 1.0149691 1.002057 1.0219471
0.99550325 1.0029821 0.98830557 1.0018144 1.0053163 1.0011835 1.0054833 0.9970398
1.0067209 1.0190104 1.0084815 1.0009856 1.0064591 1.0101012 1.0013906 1.0109022
0.9931642 0.994455 0.9917362 1.015799 1.0169113 1.0001847 1.0113273 0.9891964
1.0158684 0.99147695 1.0052404 1.0049968 1.002277 0.9988264 1.0189747 0.9828795
1.0015613 1.0099561 0.99116236 0.99716127 1.0129782 1.0082135 0.99978775 1.0065957
0.99420935 0.9870868 0.9971548 0.9961141 1.002694 0.9926795 0.9935371 0.99080247
1.002132 1.0035931 0.9951695 1.0059974 1.0049697 1.0059569 0.999044 0.98807883

cov2.1.bias f4 [64]
00000000: 43e4 93bc 6404 bd3a 3974 36bc bc8a 9dbb
00000010: 6c2b 2dbc d8ff 00bc 4aab 92ba ada5 b43c
00000020: 2345 9bbb b2ef 95bc 2b74 bbbc 60b0 3c3a
00000030: 8e95 00bc f5b6 a3bb 6aaf 5b3b e53b 0abc
00000040: 6c35 d13a 331a 903c 9743 09bc 252f 18bc
00000050: 9000 0ebc da71 423b 5b4a 08bc 0c76 9bbb
00000060: 46ab f63b 8049 edbb b75e 38bc 240a 7838
00000070: 0ef7 b1ba 5a3f 2fbc 08cd fd3a 8a3f a2bc
00000080: 4f11 a3bc f2a5 32bc d336 033c d4b6 2b3c
00000090: 3cbb 4dbc b371 b9bb 455a 4bbc 79c8 46bb
000000a0: bd14 a0ba dffa 163c 4e80 0bbc 3b1b 81bc
000000b0: f550 39ba 3772 6bbb 2dfc a3bc abb8 1f3c
000000c0: 4683 a0bc 4aff 57bc 4e04 00bb da7e 4abc
000000d0: 994c 0f3b fd0b 08bc 158b 7fbb 176e 38bc
000000e0: 764d 86bc 4dc2 b93b b05a 3c37 1998 943b
000000f0: f306 443c e995 bbba ee84 6a3a 065b 81bc
-0.01805318 0.0014420864 -0.011136108 -0.004807798 -0.010569435 -0.007873498 -0.0011189964 0.022051657
-0.0047384663 -0.018302772 -0.022882542 0.0007197913 -0.007848157 -0.0049961754 0.0033521303 -0.0084371315
0.0015961356 0.017590618 -0.008377931 -0.009288584 -0.008667126 0.0029669912 -0.008318509 -0.004744297
0.0075277416 -0.007241428 -0.0112530505 5.913725e-05 -0.0013577656 -0.0106962565 0.0019363472 -0.019805688
-0.019905714 -0.010903822 0.008008677 0.010480601 -0.012556847 -0.005659306 -0.012411659 -0.0030331893
-0.0012213212 0.009215086 -0.008514477 -0.015760055 -0.00070692535 -0.0035926232 -0.020017708 0.009748618
-0.019593846 -0.013183424 -0.0019533816 -0.012359345 0.0021865724 -0.0083036395 -0.0038992811 -0.011256716
-0.016394358 0.0056689144 1.1226788e-05 0.004534733 0.011964547 -0.0014311644 0.00089461997 -0.015790474

cov2.1.running_mean f4 [64]
00000000: bc82 cb3e 99b8 b7be ed78 d23e 5bb7 9cbe
00000010: 624a e53e fbed 1b3f dc8f f2bd 0d45 50be
00000020: 5ed8 393d cd41 d23e df88 d73e 9706 e2be
00000030: cb88 403f 1320 4bbe 593c 48bc 5531 333f
00000040: 3c1c 23bd 99a8 e93d 1c83 c33e c6db 363f
00000050: acee 103d 91c0 963e 8293 473f 5052 1f3f
00000060: 1a88 97be 3bcd 59bf 2897 873e 03ae f53d
00000070: a6e2 5d3e 2ee2 9a3e ec34 b33e c02e ee3e
00000080: 2681 1c3f 9950 10bf a688 eabd a178 d2be
00000090: e538 143f 18a4 d8bc 81c4 2d3f 648a b0be
000000a0: 2602 d23e bba2 e1be 2281 94be 34f5 863e
000000b0: 60bd de3d e24c 823f 2dce 243f a5f4 e0be
000000c0: 6ac5 0a3f acd6 d23d 9915 a23d 3dd5 bf3e
000000d0: eb9b cfbe 382a d8bd 8cf9 2fbe 3dc3 883e
000000e0: 362e 233f b858 96be ed5b 2abf 6841 92be
000000f0: af56 3dbd 1e57 b53e 572f fdbe 7aaa 4c3e
0.3974818 -0.35883024 0.41107884 -0.3060864 0.44783312 0.60910004 -0.11843845 -0.20338841
0.04537236 0.41065827 0.42096612 -0.44145653 0.7520873 -0.19836454 -0.012221419 0.6999715
-0.03982185 0.114091106 0.38185966 0.714291 0.035383865 0.29443792 0.77959454 0.62234974
-0.29596025 -0.8507878 0.2648251 0.11996081 0.21668491 0.30250686 0.35001314 0.46520042
0.61134565 -0.5637298 -0.11451845 -0.41107658 0.57899314 -0.026445433 0.67877966 -0.34480584
0.41017264 -0.44069466 -0.2900477 0.2635895 0.10875964 1.0179713 0.643771 -0.4393665
0.5420748 0.10294852 0.07914276 0.37467375 -0.40548643 -0.105549276 -0.17185038 0.26711455
0.6374239 -0.29364562 -0.6654652 -0.28565526 -0.046225246 0.35418028 -0.4945018 0.19986907

cov2.1.running_var f4 [64]
00000000: 0488 0041 bc81 b33f 30c4 263e 9e30 6c40
00000010: 0719 8e40 3a65 4a3f 4304 423f 4f9b 2f40
00000020: 3335 2440 84b4 9f3e 0a8f bb3f 5d1c b13f
00000030: 75dd 1c3f cdad 2040 57b2 3c40 022c 8b3e
00000040: 27b8 dd3e 095b ec3f bed1 453e 18dd 5e40
00000050: 3591 b23f e0e7 8c40 b47a 3840 426c 033f
00000060: c08e ef40 9d1f 9940 440d 9b3f 699e 1840
00000070: 1207 5c40 2757 3540 e44a 1a3e 5556 f63e
00000080: 5dd5 753f d35f 7540 5807 2b40 a8dc a440
00000090: 3d20 2a40 b01e 6740 e01d 6840 a73a 3540
000000a0: 3713 563e 3f93 3140 6587 e23f 0140 a03e
000000b0: 6393 3040 64f7 783f c67d e340 dec1 733f
000000c0: fc9d dd3f 0648 8040 5336 0440 00ca 5f40
000000d0: 6a4a 3140 f81f be3f 90a6 8740 4063 a53f
000000e0: c82d a93e 7d52 6e40 1fc5 6240 01b7 9740
000000f0: 012b 3940 dc03 5140 abff 0140 29f4 3a40
8.033207 1.4023967 0.16285777 3.6904674 4.440555 0.7906071 0.7578775 2.7438543
2.565747 0.3119241 1.4653027 1.3836781 0.61275417 2.510608 2.948385 0.27182013
0.4330456 1.8465282 0.19318292 3.4822445 1.3950564 4.403305 2.8824892 0.51337063
7.4861755 4.785109 1.2113423 2.3846686 3.4379315 2.8334444 0.15067631 0.4811274
0.9602869 3.8339736 2.6723232 5.1519356 2.6582177 3.611248 3.6268234 2.8317049
0.20905767 2.7746122 1.7697569 0.3129883 2.7589958 0.9725249 7.109103 0.9521769
1.7313838 4.008792 2.0658157 3.496704 2.7701669 1.4853506 4.2390823 1.2920914
0.3304274 3.7237847 3.5432813 4.7410893 2.8932498 3.2658606 2.0312297 2.9211524

cov3.0.weight f4 [64, 64, 3, 3]
00000000: e890 a83b 4b40 dfbc 1638 083d af28 7bbc
00000010: 2f31 95bc 5e9c ee3c 3cf4 1f3c 9673 023d
00000020: 6b5c 03bd d007 d03c 8f70 62bc da23 ec3c
00000030: a997 343c 187c e13b b7ff c93c e7d7 f6bc
00000040: b97a 0abb 3dd3 193d a078 47bd c70e af3b
00000050: 40a6 17bd 2ef5 1cbc a88e d7bc 8f3b d1bb
00000060: 3bf5 33bd 07b0 d83b 71d3 31bd e553 a23c
00000070: c7b7 c33c d338 71bc 445c c2bc 2964 5d3c
00000080: 3ee3 213c b56c cc3c 9fbf 4ebc 253f 0e3d
00000090: fe63 cdbc 36cf 223b 77c2 31bd 772f 19bd
000000a0: a209 d9bb 9487 22bc 17cb d8bc aaf3 dcba
000000b0: 1b6f 1bbd 1d7b c7bc 670b 663b f8f6 cebc
000000c0: bf19 523b 5560 35bc d54a 2f3d 4cb2 683c
000000d0: fc50 223c eb17 13bd 708b 663b 169d 793c
000000e0: 811c 12bd b7a4 d53c d52e 713c 2993 d2bb
000000f0: 33b0 463b 6b98 3fbd cc32 2fbc d6f6 02bd
00000100: 4d2e a8bc 94e1 f83c ac7e 7d3c f0d8 073d
00000110: 14d5 b33a 4729 2d3b 9cba 67bc e8bf 543d
00000120: 76d8 2dbd 2792 aabc 904d 16bd 82b6 c43c
00000130: ea8c b0bc 95c2 583c 9073 713c bddd b53c
00000140: 435b e3bc 3494 fcbc e13a 28bd 696b 01bc
00000150: d781 95bb d1b4 f73c 3761 3abd 0cd2 eebc
00000160: d30e 1cbd a701 02bd 7567 483b ba74 20bd
00000170: b956 743c 8772 6a3b dc29 5e3c 253c f23c
00000180: 93e7 03bc b23f 6bbc 5aa4 c23b 5599 963b
00000190: 3043 7dbc a4f6 28bd 87d5 cb3b 03af e6bc
000001a0: 4204 97bb 1218 2b3c fc93 dabc 4a61 0fbd
000001b0: 77d0 003a 0242 33bd 153e 2fbb be2e 91bc
000001c0: 5c11 98bc ee20 5cbd 0105 30bb 25ba bf3c
000001d0: 0913 ecbc 025c 0f3d 0e96 2dbd 3919 a03c
000001e0: 632b 02bd fea0 e73c 6685 3e3d 8730 0c3d
000001f0: 58e3 7fbb 4214 1c3b 6879 863c d25f fcbc
00000200: 6614 95bc 7459 763b e3e2 d43a 2886 073d
00000210: 156d 03bb e895 033d a8e5 623c 969e 393c
00000220: edc5 fc3b 4881 94bc dbda 38bd 5542 f5bb
00000230: e52e de3c 6a82 0a3c 93bb 913c cce2 d73c
00000240: f58b 923c 7b6d bb3c 1b77 113d 100f 503d
00000250: 8e53 d33c 1dc2 e8bc 0805 3cbc 86de 513d
00000260: cf63 c43c 7f3d ec3c 693d 07bd c24e bebc
00000270: e5eb 8ebc 0893 e53c 99e6 40bd 5486 1cbd
00000280: 4492 27bd dd42 56bc f56e 5ebc 2a22 9b3c
00000290: 2db0 92bc 5aad 07bd 8115 fcbc 06c2 0fbd
000002a0: b1e6 0b3c af30 aa3c 983b 80bc caa0 a03c
000002b0: c40a 483c a318 30bd 5122 203b f3ac b73c
000002c0: 3ca9 463c 6077 aebc 9bf8 d73c d09a 24bc
000002d0: 7cd9 d2bc ecfb d8bc 6046 9abc 9587 4fbc
000002e0: 0f14 eb3c be75 e43b 77c8 e03c c521 bfbc
000002f0: 528b df3c 2013 31bd 39e6 2fbd 3767 f53c
00000300: 02dc cdbc de0d f53c 455c 8c3c ce58 5c3c
00000310: 5c17 a3bc cc6a ed3c 509b 063d fd9c bb3c
00000320: e9f6 76bc da16 c13b 74f5 54bb 4dda 583b
00000330: 29d7 033d 7531 44bd 7148 c5bc 74a8 50bd
00000340: 7746 1fbd 3524 923c 12e3 b33c 410d 06bd
00000350: 00b9 033d 6dd5 8fbc 0d08 bf3b eb25 f8bc
00000360: f815 fd3b 1eec 47bc 9337 0e3d bc85 13bc
00000370: 5b27 213d 423a 1a3d 6f85 abbc d611 b53b
00000380: 4366 dd3c b615 8e3c d386 c5bc ea44 893c
00000390: 7620 e3bc 00e5 233d afd5 263d 902d 66bc
000003a0: 019c 743c 795e df3c c4fb e2bc a604 3a3c
000003b0: 2bbd 163d f817 08bd 9fd2 e23b b49a 0b3a
000003c0: faf8 c93a 991d 1d3d f50d 2fbc 9d3a 823c
000003d0: a383 c8bc 140e 1d3d c468 8b3b 6a00 34bd
000003e0: 8d85 0fbd f7c5 13bd fdb9 ba3b e09d 0abc
000003f0: 3622 923c 4a3a 2d3b 5db6 033d 3ab7 2c3a
0.0051442273 -0.027252337 0.033256613 -0.015329524 -0.01821193 0.029127296 0.00976282 0.031848513
-0.03207056 0.02539435 -0.013820781 0.02882569 0.011022487 0.006881248 0.024658067 -0.030132247
-0.0021130277 0.03755497 -0.04869902 0.005342338 -0.037023783 -0.00957994 -0.026313141 -0.0063852738
-0.043935042 0.006612781 -0.043414537 0.019815395 0.023891343 -0.014723021 -0.023725636 0.01351265
0.009880839 0.02495418 -0.012618928 0.034728188 -0.025072094 0.0024842746 -0.043398347 -0.03739878
-0.006623463 -0.00992002 -0.026464028 -0.0016857286 -0.037947755 -0.024350697 0.0035102011 -0.025264248
0.0032058803 -0.011070331 0.042795975 0.014202666 0.0099070035 -0.03591148 0.0035178326 0.015235206
-0.035671715 0.026079519 0.014720638 -0.0064262343 0.0030317425 -0.046776216 -0.010693263 -0.031973682
-0.02052989 0.030381002 0.015472095 0.033165872 0.0013720118 0.0026422308 -0.014143612 0.05194083
-0.04244276 -0.020821644 -0.036695063 0.024012808 -0.021551568 0.013229986 0.014737025 0.02220046
-0.027753478 -0.030832388 -0.041071776 -0.007899144 -0.0045625973 0.030237587 -0.045502868 -0.029152893
-0.038100075 -0.031739857 0.0030579243 -0.03917382 0.014913254 0.003577383 0.013559785 0.029569695
-0.008050817 -0.014358448 0.0059400024 0.0045959153 -0.015457913 -0.04125084 0.006220523 -0.028159624
-0.004608662 0.0104427505 -0.026681893 -0.03500489 0.0004913876 -0.04376412 -0.0026739885 -0.017722484
-0.018562965 -0.05374234 -0.0026858451 0.02340419 -0.02881767 0.034999855 -0.04237943 0.019543277
-0.031779658 0.02827501 0.046513937 0.034225967 -0.003904542 0.0023815786 0.016415313 -0.03080741
-0.018198203 0.003758994 0.0016241934 0.033086926 -0.0020054032 0.032125384 0.0138487 0.011329314
0.0077140243 -0.018128052 -0.04513059 -0.007484714 0.02712197 0.008453945 0.017789638 0.026353262
0.017889002 0.022879353 0.03551398 0.050795615 0.025796678 -0.028412873 -0.011475809 0.051237606
0.023973374 0.028837917 -0.03301755 -0.023230914 -0.017446468 0.028024212 -0.047094915 -0.038214043
-0.040910974 -0.013077465 -0.013576259 0.01893719 -0.017906273 -0.033124305 -0.030771973 -0.035097145
0.008538888 0.020775167 -0.015653417 0.01960792 0.012209598 -0.042992245 0.0024434517 0.022421336
0.01212531 -0.021297157 0.026363662 -0.010046676 -0.02573847 -0.026487313 -0.018832386 -0.012666603
0.028696088 0.006972044 0.02743934 -0.023331532 0.027288113 -0.04323113 -0.042944167 0.029956443
-0.025129322 0.029913839 0.017133841 0.013448907 -0.0199086 0.028981589 0.03286296 0.022902006
-0.015073516 0.0058926167 -0.0032494934 0.0033089102 0.032187615 -0.04789873 -0.024082394 -0.0509419
-0.03888556 0.01783953 0.021958862 -0.032727484 0.03215885 -0.017557824 0.005829817 -0.030291518
0.007723566 -0.012202291 0.03472097 -0.009004053 0.039344173 0.037653215 -0.02093765 0.005525808
0.027026301 0.017344337 -0.02411214 0.016756494 -0.02772544 0.040013313 0.04073113 -0.014048949
0.014929772 0.027266728 -0.027707942 0.011353647 0.0368015 -0.033225983 0.0069220806 0.0005325482
0.0015409284 0.038358305 -0.01068448 0.01589709 -0.024476832 0.038343504 0.0042544324 -0.043945707
-0.035039473 -0.036077466 0.005698441 -0.008460492 0.017838579 0.0026432448 0.032156337 0.0006588582

cov3.0.bias f4 [64]
00000000: 9581 0d3d b346 14bd f128 263d 3cff 8cbc
00000010: 504d fcbc ab79 c9bc 111c 86bc d638 94bb
00000020: 09a2 d03c c3bb b43a 222a 683b 177b 083c
00000030: 7c9d d4bc 2527 16bc 15a5 58bb 5154 0c3d
00000040: a5da d83c 3718 57bc 2ce1 783c 4326 093a
00000050: b2f6 cbbc a874 ffbc ad22 863b a245 193d
00000060: 7d40 213d a4ac febc bbe3 6abc fd7b 0fbd
00000070: a50a dc3c caa8 0abd 72e1 39bc 4d28 fc3b
00000080: 5f27 de3b f9dd 833c 0075 f7bc cf2f e7bb
00000090: 0b09 9e3c ac28 b6bc 56c2 ae3c 0e79 123d
000000a0: c359 40bc 5b45 e03c baa5 d4bb 72c6 4e3c
000000b0: 8cac b43c 5831 043d 5cd7 fabc fdd8 28bd
000000c0: fa36 073d aaff 96bc 6996 efbb 41be dd3c
000000d0: d880 dabc a8b2 03bd 555f b43c 2952 a0bc
000000e0: 2c4e 67bc 6944 1cbd 7922 943c 6ec6 993b
000000f0: e0e7 6b3a 1c92 dfbc 79d1 353c 9380 223c
0.034547407 -0.036200237 0.04056639 -0.017211549 -0.030798584 -0.024594149 -0.016370805 -0.004523377
0.02546789 0.0013788868 0.0035425504 0.008330128 -0.025954 -0.009164606 -0.003305738 0.034260098
0.026471445 -0.013128332 0.015190404 0.00052318367 -0.024897907 -0.031183556 0.004093489 0.037419923
0.03936814 -0.03108818 -0.014336522 -0.035030354 0.026860544 -0.033852376 -0.011345254 0.007695234
0.0067795957 0.016097056 -0.030207157 -0.00705526 0.019291421 -0.02223619 0.021332901 0.035759978
-0.011740151 0.027376821 -0.0064894827 0.012620555 0.022054933 0.03227362 -0.03062027 -0.04122256
0.033011414 -0.018432457 -0.0073116315 0.02706826 -0.026672766 -0.0321528 0.022018114 -0.019570427
-0.014117759 -0.03815118 0.018082844 0.004692844 0.00089990906 -0.02729135 0.011097305 0.00991835

cov3.1.weight f4 [64]
00000000: 388f 773f 2676 763f 1033 753f 99f3 7b3f
00000010: e1db 773f d1ec 7d3f 3005 753f f895 7a3f
00000020: 01b1 7a3f aa0d 7a3f d5f6 773f b45f 783f
00000030: 19ff 783f 593c 7a3f 3e9b 753f 31c0 743f
00000040: fd82 773f eecc 783f 006e 763f 7a75 773f
00000050: 43e6 753f 30ab 793f 3d80 783f 0253 773f
00000060: 0a9e 753f 6f3b 7a3f a1da 783f 7f4d 743f
00000070: 8c33 763f a8ca 753f 5970 793f ed82 763f
00000080: 10aa 783f 5c1b 773f 6e76 7c3f 6bc6 7c3f
00000090: cc20 773f f2ea 773f a6be 743f f6d5 773f
000000a0: 2a84 773f 57bf 7a3f 35a9 773f 9114 773f
000000b0: f7f8 753f e085 773f 38f2 793f 7c92 773f
000000c0: d7d7 773f 326e 793f ec02 763f 832f 793f
000000d0: 1f0b 773f 015e 763f 1a81 783f 3679 783f
000000e0: 60a3 773f 6202 783f 74e5 753f 9229 7a3f
000000f0: 4d82 783f e894 763f bfae 7b3f 9efb 7b3f
0.9670291 0.9627403 0.9578104 0.98418576 0.96819884 0.9918948 0.9571104 0.97885084
0.97926337 0.976771 0.9686101 0.9702103 0.9726425 0.97748333 0.95940006 0.9560576
0.9668425 0.971877 0.96261597 0.9666363 0.96054476 0.97526836 0.97070676 0.96611035
0.95944273 0.9774694 0.972086 0.9543075 0.96172404 0.96012354 0.97437054 0.96293527
0.97134495 0.9652612 0.9861821 0.9874026 0.9653442 0.96842873 0.95603406 0.96810853
0.9668604 0.9794821 0.96742564 0.96515757 0.96083015 0.9668865 0.9763522 0.9670789
0.9681372 0.9743377 0.9609821 0.9733812 0.96501344 0.9623719 0.97071993 0.97059953
0.96733665 0.96878636 0.9605324 0.9771968 0.97073823 0.9632096 0.98313516 0.9843081

cov3.1.bias f4 [64]
00000000: aa55 12ba dc0a e93b ab0c 27bc b443 b9bb
00000010: 640f e93b 06da 7e3b 6807 63bb 71b0 af3c
00000020: 6360 67bb aae5 5abc 1d16 a03c ef27 8b3c
00000030: 03e2 87bc 5762 873b 2cd7 c3bc 2a59 30bc
00000040: af89 53bc a7b6 68ba 5b19 2b3c 5865 39bc
00000050: 6a40 9cbb 8c68 9dbb 0578 943b efcf 6b3c
00000060: 7283 0c3c ad5b 49bc d861 7c3b 7c25 d43b
00000070: d6fe f7ba 19b8 223c 3434 bebb ec82 153c
00000080: d768 8f3b 5e5d 703c 8d3e b93b 899d a9bb
00000090: ac53 84bc 6fb1 8b3c 9564 91bc 5a3e 9abc
000000a0: a317 2ebc 6d28 8d3b 44ab 84bb 7cd0 83bc
000000b0: 3bb6 f23b 1536 06bc 27ec 923a ddcc ae3b
000000c0: 559b 9c3c abe3 5639 bdda acbb 09bc a4bb
000000d0: e8ad eb3b b2e5 6e3c 4bd6 4e3c 0755 d33c
000000e0: d6a7 43bc 7a2f 113c d312 55bb e029 7abb
000000f0: c94f d6bb d8ae 7d3c 45b6 94bc 329c 8f3c
-0.0005582223 0.0071118902 -0.010195891 -0.005653823 0.0071124304 0.0038887276 -0.0034641866 0.021446439
-0.0035305254 -0.01336042 0.019541794 0.016986815 -0.016587263 0.004131596 -0.023906313 -0.010763446
-0.012911244 -0.0008877315 0.010443057 -0.011315666 -0.004768421 -0.0048037227 0.004530909 0.014392837
0.008576261 -0.012289924 0.0038510468 0.006474195 -0.0018920552 0.009931588 -0.005804563 0.0091254525
0.0043765116 0.014670698 0.0056532086 -0.0051762504 -0.01615318 0.01705238 -0.017748157 -0.01882856
-0.010625753 0.0043077976 -0.0040487368 -0.016090624 0.0074069775 -0.008191605 0.0011209295 0.00533448
0.019117037 0.00020493443 -0.005275099 -0.0050272983 0.007192362 0.014581131 0.012624334 0.02579738
-0.011941871 0.008861417 -0.003251244 -0.0038171932 -0.006540273 0.0154835805 -0.01815332 0.017530534

cov3.1.running_mean f4 [64]
00000000: 91c3 dabe 1f35 303f ed12 3cbe f8e9 193e
00000010: d47c 6a3e 1bdd 053f b9f4 16bf 6ecd a6be
00000020: 906b e2be 5e0b dbbe 0c01 02bf 282c 04bf
00000030: 4abc 92bc cb6d 01bf 9aed 50be cce7 2ebf
00000040: 92dc c1bc 8b5b d1bd a371 91be 7d8d fabe
00000050: fa29 2ebf f25b 80bd 4dd4 eb3e 2f63 3abf
00000060: a8fe 043f dedb 37bf 1ac9 133f 444b bcbc
00000070: ddc6 04bf 8ddc 0c3e 27e6 16bf 0803 24be
00000080: 063e 793d 0dad bb3e 1073 7ebe 4d1e 5dbe
00000090: 1b9e 11be f535 e93e 36ef 1c3f 29a5 ea3e
000000a0: 6dad 803e 5e15 45be b181 9c3e 4e07 d6be
000000b0: 09a3 0f3e 2fba 9dbe fe92 eb3e 31b9 c63e
000000c0: 917e c43e 9a3b 6cbe 41d6 1cbf 912d 063f
000000d0: b444 e1be f236 923e 7cde 2f3f 4ff0 4a3e
000000e0: 2ba6 03bf d3a6 b9be c28c 3ebf c07f dbbd
000000f0: 9ab9 e9bd 7259 183f 2a3c 033f 2893 c1be
-0.4272733 0.68831056 -0.18366595 0.15030658 0.2289918 0.52290505 -0.5896717 -0.32578605
-0.4422269 -0.4278211 -0.5078285 -0.5162988 -0.017912049 -0.50558156 -0.20403138 -0.68322444
-0.023664746 -0.102225386 -0.2840701 -0.48936072 -0.680328 -0.06267537 0.4606041 -0.7280759
0.51951075 -0.71819866 0.5772873 -0.022985108 -0.5186594 0.13756008 -0.58944935 -0.16016781
0.060850166 0.36655465 -0.2484858 -0.2159359 -0.14220469 0.45548978 0.61302507 0.45829132
0.25132313 -0.19246432 0.30567697 -0.41802448 0.14027037 -0.3080611 0.46010584 0.38813165
0.38377813 -0.23069611 -0.61264426 0.5241328 -0.4399773 0.28557545 0.6869886 0.19818233
-0.5142543 -0.3626009 -0.7443353 -0.10717726 -0.11412354 0.5951148 0.5126368 -0.37807584

cov3.1.running_var f4 [64]
00000000: 901e ca3f ef2d 3240 61f2 b83e 60da 013f
00000010: 3452 863f 4d16 653f 6ee3 6f3f 6265 1940
00000020: 91ea c63f 896a 9f3f f8e6 a03f fc89 173f
00000030: 1abe c33f e61c c03f a9ef 213f fead c83f
00000040: 84d7 d63d 7176 883f 79ff 863f 6874 173f
00000050: 902f cd3f a9ae ea3d a2c4 a13f 9e8c 0440
00000060: 0313 a73f 792c 803f 8683 653f 832c eb3d
00000070: 1cab 8a3f b7bd 533e a592 2c40 b26b 233f
00000080: a0b6 d13d 9d6a 503e f02e 3540 aa8d 8f3e
00000090: b92c 083e c049 943f 2988 343f 34f4 713f
000000a0: 65ed 943d f031 423f b03d ab3f b6f7 5f3f
000000b0: e3f8 473f c841 2e3f 2824 9d3e 5fc9 503f
000000c0: 0301 383f de13 873d 12bb 8d3f c28c d63f
000000d0: 9739 303f 127a 8740 50f9 c940 bd61 0d3f
000000e0: 4c31 bb3d 9751 513f fe7b b63f e083 7c3d
000000f0: 28e6 6e3d d16b c93f 41c2 ee3e 878a d13e
1.5790577 2.7840536 0.3612242 0.5072384 1.0493836 0.89487153 0.93706405 2.396813
1.5540334 1.2454387 1.2570486 0.5919492 1.5292389 1.5008819 0.6325632 1.5678098
0.10490325 1.0661145 1.0546714 0.59161997 1.603014 0.11459095 1.2638133 2.0710826
1.3052677 1.0013572 0.89653814 0.11483099 1.0833468 0.20677839 2.6964505 0.63836205
0.10239911 0.2035317 2.8309898 0.2803777 0.1329831 1.1585007 0.70520264 0.9451325
0.07271842 0.7585745 1.33782 0.8748735 0.78114146 0.68069124 0.30691648 0.8155727
0.71876544 0.06595586 1.1072714 1.6761706 0.68837875 4.233651 6.3116837 0.5522726
0.09140262 0.8176512 1.425659 0.061649203 0.058324963 1.5736028 0.4663258 0.40926

cov4.0.weight f4 [64, 64, 3, 3]
00000000: b043 a6bb feab f33c e3ea 6a3b ce9c debc
00000010: 577d 0a3d a125 783c 4348 33bd 8904 8abc
00000020: 9230 9cbc 2c86 ef3c 3822 393d 70a3 8c3a
00000030: 26c0 963a 1cb6 5b3d 6045 053d 2bbe a43b
00000040: e50e 10bd f76a 243b ce89 393d 3683 8ebc
00000050: 22c1 033d 4719 16bc 85b6 2a3c c769 74bb
00000060: f862 2abc 9ffc 8c3c 18f5 e5bc b2d7 223d
00000070: 0b52 02bd 690a b63c 8f34 c53b 7055 013c
00000080: c664 5cbc dfbf b93b 20aa 22bd b970 d2bc
00000090: 730f eb3c b913 143d c673 f2bc 35a6 6abb
000000a0: f7e3 0e3c 08d7 fb3c 703c 6cbc 7a79 303a
000000b0: 7f1f a43c e773 8b3c e49c 60bc b114 0f3d
000000c0: 8c3f 82bc 8d52 653c 0615 d23c 9aaa a6bc
000000d0: b2d8 1cbd ee4f dcbc 819f 10bb 96d5 01bd
000000e0: feac fe3c 8701 4e3d 9aa1 8e3b 217b 09bd
000000f0: af5d 5a3d 25e6 c1bc db8a 23bd 4150 1b3c
00000100: 623b 1bbc 977b 03bc c06b 3ebd 9b47 e63b
00000110: 74b6 aa3c 1617 cebc 95f4 aa3c f05f 42bd
00000120: 3712 403c 77ed e33c ddbb 78bc 6fd1 b2bb
00000130: 3d0c d73b d62c b9bc 048c aa3c 35d4 9e3c
00000140: 07a4 efbb fa5b ec3b c202 f03c b279 ba3c
00000150: aba4 833b c1bd 02bd 83de 99bc d8b3 063c
00000160: 9083 20bd 6250 54bd 2131 2bba c9f3 b03c
00000170: 3a78 1cbd 9787 8abb 5b2a 31bd e94b 2abd
00000180: bd13 e8bc 8aaf 033d d18c 35bc 3795 2f3d
00000190: e869 6ebc 7aa3 8abc c615 5fbc ee3a ed3b
000001a0: 8a68 ccbc e9e5 8b3c e5c1 853c 83d9 9a3c
000001b0: b367 4bbc 2114 a0bc edb4 543a 3dcd 60bd
000001c0: 4c39 43bd de86 9a3c 270a 843c 1e46 67bc
000001d0: 2fe2 963b e33b 3fbd 232b 4b3c fff2 2dbc
000001e0: 9e70 db3c 6ff7 f7ba 785a 82bc 862b 0ebd
000001f0: ecd2 9fbc b1ce 053d 5c5f 8d3c 0a3d 0a3c
00000200: 69e6 9bbb 59eb 9d3c 8e7d eeba c07e 193d
00000210: aa3f 04bd 9617 a43c 98a9 c23c 8843 c2bc
00000220: d59d 3fbc 006a 023c e930 0a3c 3bbc 343d
00000230: e4c6 7dbc e212 323d d7d6 4a3d bb29 af3c
00000240: 2019 df3b 1e11 88bc 0e23 e0bc 1933 b53b
00000250: 7819 a2bc f191 f6bc 7f10 0ebd 6d5c 8cbb
00000260: 7690 c93c 9396 1d3d 23eb 10bc 1951 173d
00000270: 96cb 093d 94aa 233d 874f a13c 05af 4a3c
00000280: e578 03bc e55a e3bc 52f1 013d 6bd6 a03a
00000290: 0369 113c 5f6d ea3c 9d8d b33c 20bc c9bc
000002a0: ee81 84bc b28b b43c 1b21 1f3c ac8c 813c
000002b0: a8ac d53b 1eed 24bd eee4 253c b6e9 1bbd
000002c0: c237 f03c 7a72 bcbc 7e1c 963c 846e 14ba
000002d0: ddfa bc3b 39c8 03bc 262e c53b fad3 a0bb
000002e0: d712 41bd c669 abbc 15c7 5c3b a35a 56bd
000002f0: f4c3 dc3a 251e 143b 2807 163d 16ca bb3b
00000300: ef0e 043d eede 6a3c 26c7 feba a451 5b3c
00000310: 56c3 ab3c 014e fe3c 3f73 d53c 9123 c33b
00000320: f24d 99bc 06f0 be3c 6834 203d ba72 90ba
00000330: 61dc 213d 95a2 433d 39ec d1bc 7e14 bf3c
00000340: a4ec dabb b266 7c3c a429 a2bc 714b 1a3d
00000350: 9319 863b 6dfc e93b 7b4c 043d 1061 4bbc
00000360: 93aa 76bc d750 1d3d d421 463d e52c f23c
00000370: f103 cabc 5534 b73c 7bfb fd3c d112 293d
00000380: 5401 e6bc f7c2 063d 86cb 06bd 70f7 22bc
00000390: 6d07 dcbc 5166 ad39 6ab1 53bc fd59 0bbd
000003a0: 2e83 d4bc da9d f63b 7726 833b ebff a33c
000003b0: 75b8 56bc 751e dabb 2a7c 8ebc a813 703b
000003c0: 16ae 22bc 5e79 203d 4456 84bb c48d 0bbd
000003d0: cbe8 b23c f05e 49bd 4fa3 4ebc 70fd f33c
000003e0: 1260 9b3c be71 e5bc 6573 983b c6f6 2bbd
000003f0: ccd8 7ebc 2bc2 4039 d8e6 29bc 81a2 c73c
-0.005073987 0.029745098 0.003584557 -0.02717438 0.03381094 0.01514569 -0.043770086 -0.016847866
-0.019066129 0.029238783 0.04519865 0.001072986 0.0011501356 0.05364047 0.032536864 0.0050275526
-0.035170455 0.002508817 0.045297436 -0.01739655 0.032166608 -0.0091613 0.010419493 -0.0037294494
-0.010399573 0.017210303 -0.028070971 0.039756484 -0.031816524 0.02222176 0.0060182284 0.007893905
-0.013451761 0.005668625 -0.039713025 -0.025688516 0.02869389 0.03615162 -0.02959622 -0.0035804634
0.008721343 0.030742183 -0.014418706 0.00067319686 0.02003455 0.01702304 -0.013709281 0.034931842
-0.015899442 0.013996732 0.02564479 -0.020345021 -0.038292594 -0.026893582 -0.0022067728 -0.031697832
0.031088348 0.050294425 0.0043527605 -0.03356469 0.053312 -0.023669312 -0.039927345 0.009479583
-0.009474607 -0.008025072 -0.046489477 0.007027579 0.020838954 -0.025157493 0.020868579 -0.047454774
0.011723093 0.027823193 -0.015181509 -0.0054570953 0.006562738 -0.022604387 0.020818718 0.019388298
-0.0073132548 0.007213113 0.02929819 0.022763107 0.0040174327 -0.031919245 -0.01878286 0.008221589
-0.039187968 -0.05183447 -0.0006530453 0.02160062 -0.038200594 -0.0042275894 -0.043253284 -0.0415763
-0.028329724 0.03214983 -0.0110809365 0.04286691 -0.014551617 -0.016923655 -0.013616031 0.007239691
-0.024952192 0.017077403 0.016327808 0.018902546 -0.012414861 -0.019540848 0.0008114118 -0.05488323
-0.047662064 0.018863138 0.016118122 -0.014115838 0.0046046 -0.04668797 0.012400421 -0.010617017
0.026787098 -0.0018918345 -0.01591228 -0.034709476 -0.019509755 0.03266782 0.017257385 0.008437404
-0.0047576916 0.019277262 -0.0018195377 0.037474394 -0.032287277 0.020030778 0.02376251 -0.023713842
-0.011695345 0.007959843 0.008434513 0.044124823 -0.015489314 0.04347504 0.049521293 0.021382203
0.006808415 -0.016609725 -0.027360465 0.005529773 -0.019787535 -0.030098887 -0.0346837 -0.004283479
0.024605017 0.038473677 -0.008845123 0.036942575 0.03364142 0.039957598 0.019691242 0.0123708295
-0.008024429 -0.027753303 0.03172428 0.0012270933 0.008875134 0.028616605 0.021918112 -0.024625838
-0.016175237 0.022039268 0.009712483 0.015814148 0.0065208264 -0.040265195 0.010125382 -0.03806468
0.029323462 -0.023003805 0.018324133 -0.000566222 0.00576721 -0.008043342 0.006017464 -0.004908082
-0.047137108 -0.02092446 0.0033687998 -0.05233253 0.0016843067 0.0022600975 0.03662792 0.0057308776
0.032240804 0.014335377 -0.0019438013 0.013386164 0.020967167 0.031043055 0.02605593 0.0059551676
-0.018713925 0.023307811 0.03911248 -0.0011020519 0.03951681 0.047762472 -0.025625335 0.023325201
-0.006681042 0.015405344 -0.019795246 0.037669603 0.004092404 0.007140687 0.0322995 -0.012413278
-0.0150553165 0.038407173 0.048372105 0.029562423 -0.024660083 0.022363821 0.031003704 0.04127771
-0.028076805 0.032900777 -0.03290894 -0.009946689 -0.02685901 0.00033073363 -0.012920717 -0.034021366
-0.025941458 0.0075261416 0.004002388 0.020019492 -0.013105501 -0.006656463 -0.01739319 0.003663281
-0.009929201 0.039178245 -0.004038604 -0.034070745 0.02183952 -0.049162805 -0.012612178 0.029783934
0.018966708 -0.028008338 0.004652428 -0.04198339 -0.015554618 0.0001838288 -0.010369979 0.02436948

cov4.0.bias f4 [64]
00000000: df99 bdbc e366 003d a567 fbbc 8abf c1bc
00000010: 5744 84bc 12d9 573b ae31 bdba ea17 15bd
00000020: 251e 9f3c a461 8bbb 9ca4 69bc 687a e9bc
00000030: f7f0 09bc 692b 1b3d 8387 21bd 41a3 22bd
00000040: 698c 06bc d6b0 97bb cc02 1fbd 3107 f6bc
00000050: f1bb 453c c156 1cbd 8906 1b3c 1db1 b13c
00000060: b7a9 0cbd bca4 e33c 3185 38bc 43c9 7bbc
00000070: 790c 2f3d ac0e 03bd 86c3 b13b f623 2fbd
00000080: 90dd 02bd ea56 1a3c 79b6 a8bc b5f4 6b3b
00000090: 23d8 ed3c 9a2c dbbc 04ab 813b 3e66 a1bc
000000a0: b288 2ebd 1987 24bd e51d 8a3b 08f2 81bc
000000b0: a97b a7bc 84b4 c3bb 5c94 94bc eb44 793c
000000c0: e8c9 1fbc f2b0 a2bc f003 edbc 09f2 07bc
000000d0: 2b76 5f3c 3277 1fbc 37c3 12bd 0c32 0fbd
000000e0: 138f 1dbd 70fa 2bbb 8e24 7d3c 65fe a13c
000000f0: 998c 01bd 7bd7 bb3b 3f78 b13c 6c30 023d
-0.02314466 0.03134812 -0.03068907 -0.023650903 -0.016145868 0.003293578 -0.0014434361 -0.03639976
0.019423554 -0.004253583 -0.014260437 -0.02850075 -0.008419267 0.037883196 -0.039435875 -0.039706472
-0.008212187 -0.004629235 -0.038821027 -0.030032726 0.0120687345 -0.038168672 0.009462007 0.0216909
-0.03434154 0.027788512 -0.011262224 -0.015367809 0.042736504 -0.031996414 0.0054249195 -0.042758904
-0.03194958 0.009420136 -0.020594822 0.003600401 0.029033726 -0.026754666 0.003957154 -0.019702073
-0.04261083 -0.0401679 0.0042149895 -0.01586248 -0.020444708 -0.005972447 -0.01813715 0.015214185
-0.009752728 -0.019859765 -0.028932542 -0.008297452 0.013639013 -0.009733008 -0.035830703 -0.034959838
-0.038466524 -0.0026241802 0.01545061 0.019774625 -0.031628225 0.0057324744 0.021663783 0.03178446
