Weights/Decoder_weight.pkl (torch, 473154 bytes, 15 tensors)

cov1.0.weight f4 [64, 64, 3, 3]
0	0xbb81b618	-0.003958475
1	0xbb11fa20	-0.002227433
2	0xbc4b2d37	-0.012400917
3	0xbcd41044	-0.025886662
4	0xbc870257	-0.016480608
5	0xbcc8048c	-0.02441623
6	0xbafe016c	-0.0019379086
7	0x3c46ef0f	0.012141957
8	0x3cec2e5c	0.0288307
9	0x3bb7d5d2	0.005610206
10	0xbc586cd6	-0.013209542
11	0xbcf7e1d0	-0.030259043
12	0x3cf99b22	0.03046948
13	0xbc8fd4cd	-0.017557526
14	0xbb834e89	-0.004007165
15	0x3c41b41b	0.011822726
16	0x3ce12f1d	0.027488286
17	0x3d31f81d	0.04344951
18	0x39550db2	0.00020318365
19	0x3a6e2bc6	0.0009085502
20	0x3bbe60b7	0.005809869
21	0x3bddb11b	0.0067654974
22	0x3be5a1b7	0.0070078033
23	0x3d100a7d	0.035166252
24	0x3ca7ca23	0.020482128
25	0x3c4a0148	0.012329407
26	0x3d033746	0.032035135
27	0x3c281bbd	0.01026052
28	0x3c410423	0.011780771
29	0x3d1e94c8	0.038716108
30	0x3d3a36ee	0.04546254
31	0x3cde9398	0.027169988
32	0x3d0d6639	0.034521315
33	0x3c2e650c	0.010644209
34	0xbc8846bd	-0.016635293
35	0xbd25c76e	-0.040473394
36	0xbc4ffbb5	-0.012694289
37	0xb98bdf91	-0.00026678716
38	0x3d463fb0	0.04840058
39	0xbca90421	-0.020631852
40	0xbce22483	-0.0276053
41	0x3d11e1e9	0.035615835
42	0xbc5b64dd	-0.013390747
43	0xbcf400ae	-0.02978548
44	0x3d021848	0.031761438
45	0x3cc0d506	0.023539077
46	0xbc21b823	-0.009870562
47	0xbc528201	-0.012848378
48	0xbd28164f	-0.0410369
49	0xbcfaf71b	-0.030635407
50	0x3b6da921	0.0036264139
51	0x3c8818d4	0.016613401
52	0xbd2780e2	-0.040894397
53	0xbcad47f8	-0.021152481
54	0x3c8bdbf2	0.017072652
55	0xbcc3f2fd	-0.023919577
56	0x3d399013	0.045303416
57	0x3d2cd04e	0.042190842
58	0xbc48f89a	-0.0122663025
59	0x3cda1c84	0.026624925
60	0xbc8b1017	-0.016975446
61	0x3cfcd6b8	0.030864105
62	0xbcfec443	-0.031099444
63	0x3d2c7c8d	0.04211097
64	0xbc545600	-0.012959957
65	0x3ce5e60e	0.0280638
66	0xbb981b05	-0.004641893
67	0xbc64594f	-0.013937308
68	0xbc198920	-0.009371072
69	0xbcd46b3a	-0.025930036
70	0x3d546740	0.05185628
71	0x3c9c0b67	0.019048406
72	0xbcf79e13	-0.030226743
73	0x3cb08c72	0.021551345
74	0xbc458bbd	-0.012057242
75	0x3cc809e5	0.02441878
76	0xbd0c8527	-0.03430667
77	0xbc569a46	-0.013098305
78	0x3d0416f3	0.03224845
79	0xbb331210	-0.0027323999
80	0xbd02dd96	-0.031949602
81	0xbc6e991f	-0.014562874
82	0xbcbd2350	-0.023088127
83	0x3ae3d09c	0.0017380896
84	0xbc7ccfb0	-0.015430376
85	0x3ca70427	0.020387722
86	0xbcbad6e0	-0.022807539
87	0xbcc38811	-0.023868592
88	0xbc98f319	-0.018670605
89	0x3cd6e81f	0.02623373
90	0xbbaf7b5f	-0.005355283
91	0xbb6fceed	-0.0036591843
92	0xbcc4349d	-0.02395087
93	0xbc6738d2	-0.014112668
94	0xbc08aefe	-0.008342503
95	0x3b985909	0.0046492857
96	0x3cebea8b	0.028798362
97	0x3d1513b9	0.036395762
98	0x3c95ddd3	0.01829425
99	0xbccf0a4c	-0.025273465
100	0xbb64f5a1	-0.0034936445
101	0x3c7afdf2	0.015319334
102	0x3cac8d5a	0.021063495
103	0x3c1818c5	0.009283249
104	0x3d0521d2	0.032502957
105	0x3c8a49c0	0.01688087
106	0xbd0446db	-0.032294136
107	0xb96651f2	-0.00021965036
108	0xbd06f5d7	-0.032949295
109	0xbd01ebbb	-0.03171895
110	0xbd351564	-0.044209853
111	0x3cc2f5f5	0.023798922
112	0x3d0607cc	0.03272228
113	0x3c6f259b	0.014596368
114	0xbc4fd3d3	-0.01268478
115	0xbcafe6c2	-0.021472339
116	0x3b3f23cb	0.0029165621
117	0x3c7274b5	0.014798333
118	0x39f82c66	0.00047335326
119	0xbc645990	-0.013937369
120	0xbd235907	-0.039879825
121	0x3ac91df4	0.001534401
122	0xbad7509e	-0.0016427224
123	0xbc97059d	-0.018435294
124	0xbcaa53e5	-0.020791957
125	0x3cfcb19d	0.030846411
126	0xbc1485d3	-0.009065109
127	0xbc353ac8	-0.011061378
128	0x3ba72d3a	0.005101827
129	0x3cb6b8d0	0.022304922
130	0xbc23752b	-0.0099766655
131	0xbd17183e	-0.036888354
132	0xbc1e3803	-0.009656909
133	0xbb79bad0	-0.0038105734
134	0x3c39f4c1	0.011349858
135	0x3c715849	0.0147305215
136	0x3c9cb9ae	0.019131508
137	0x3bc6a409	0.006062035
138	0xbcf0e79b	-0.029407313
139	0x3c1eea4d	0.009699416
140	0xba866a46	-0.0010255061
141	0xbca005b0	-0.019533962
142	0x3d231233	0.039812278
143	0xb9a97fbe	-0.00032329367
144	0x3d33147c	0.043720707
145	0x3d0c4d38	0.03425333
146	0x3c7a46c5	0.015275662
147	0xbd0b0873	-0.033943605
148	0xbd16f346	-0.036853097
149	0xbab29139	-0.0013623602
150	0xbd1ca763	-0.03824557
151	0xbb5b6a49	-0.00334801
152	0x3c7f9022	0.015598329
153	0x3d062746	0.032752298
154	0xbb2f2015	-0.0026722003
155	0x3ce2e6c0	0.02769792
156	0xbb321691	-0.0027174095
157	0x3c17aaae	0.009257002
158	0xbc829a0d	-0.015942598
159	0xbcfcc652	-0.030856285
160	0x3cc54f97	0.024085803
161	0x3c33f13f	0.0109828105
162	0xbc3f711a	-0.01168468
163	0xba1d9296	-0.0006010918
164	0xbcfcb9b1	-0.030850263
165	0x3d2ccbff	0.042186733
166	0x3d301ce8	0.042996317
167	0xbcf17c72	-0.029478285
168	0xbcae3896	-0.021267217
169	0x3ca237c6	0.019801985
170	0xbc8ddc6f	-0.017317025
171	0xbb6f3f35	-0.003650618
172	0xbc734c98	-0.014849804
173	0xbced3aa3	-0.028958624
174	0xbd12ccce	-0.03583985
175	0x3c2902e1	0.010315628
176	0xbcc834c8	-0.02443923
177	0x3c8af008	0.016960159
178	0x3cc357d5	0.023845593
179	0xbcbc5244	-0.022988446
180	0x3bceec38	0.0063147806
181	0xbca62b52	-0.020284329
182	0xbd4f194c	-0.050561234
183	0xbd1f401c	-0.0388795
184	0xbd4e9add	-0.050440658
185	0x3c731598	0.014836691
186	0xbc82ab6a	-0.015950877
187	0x3c142890	0.009042874
188	0x3ce656af	0.028117506
189	0xbd2c518f	-0.042069968
190	0xbba5c398	-0.005058717
191	0xbbda4f20	-0.0066622645
192	0xbc43498b	-0.0119193895
193	0xbcd1cef2	-0.025611375
194	0xbc8f9f1b	-0.017531922
195	0xbb22466d	-0.0024761215
196	0xbd0aa7c8	-0.033851415
197	0xbd23152d	-0.039815117
198	0x3d290759	0.041266773
199	0xbb88aa80	-0.004170716
200	0xbd05ef95	-0.032699186
201	0x3b83da75	0.004023845
202	0x3d10cbe1	0.035350684
203	0x3b7a6d06	0.0038211956
204	0x3d1ce1e9	0.038301382
205	0x3a5b0820	0.0008355398
206	0xbcfead8f	-0.031088619
207	0x3c98c627	0.018649174
208	0xba92077a	-0.0011141144
209	0xbc236ca6	-0.009974634
210	0x3cc7d1ec	0.02439209
211	0xbc60250b	-0.013680707
212	0x3d17ffed	0.037109304
213	0xbcc5521e	-0.024087008
214	0x3c2f40be	0.010696588
215	0x3d017f6e	0.031615667
216	0x3d1c9c6b	0.03823511
217	0xbced833c	-0.028993241
218	0x3cf58905	0.029972563
219	0x3ce6377e	0.028102633
220	0xbbe81fb1	-0.007083856
221	0x3d2b3ab7	0.04180404
222	0x3c4eb6ed	0.012616855
223	0x3d0a8b02	0.033823974
224	0xbc0145f0	-0.00789021
225	0xbd35d97e	-0.04439687
226	0xbb3d0027	-0.0028839202
227	0xbd23e3b4	-0.040012076
228	0xbce124fa	-0.027483452
229	0x3ccb38e6	0.024807405
230	0xbc8211ef	-0.015877692
231	0x3a7bc68d	0.00096044765
232	0xbc5343b2	-0.012894558
233	0xbcb423f5	-0.021989802
234	0x3c901d0d	0.017591977
235	0x3d166598	0.03671798
236	0x3d19e0c9	0.037567887
237	0xbc901442	-0.017587785
238	0x3b590e10	0.0033119954
239	0xbc6c66d1	-0.01442881
240	0x3cfe8431	0.031068893
241	0xbc5e9a69	-0.013586619
242	0xbce74d46	-0.028235089
243	0x3d3391c0	0.04384017
244	0x3c9231d4	0.017846026
245	0x3c8f221b	0.017472317
246	0x3d3a8ad4	0.045542553
247	0x3d290205	0.04126169
248	0xbcd34b8a	-0.025792856
249	0x3b25d46d	0.0025303618
250	0x3c2d593e	0.010580359
251	0xbba048d0	-0.0048914924
252	0xbc70069b	-0.014650012
253	0xbcafcd8a	-0.021460313
254	0xbcae696b	-0.021290502
255	0xbbf15a29	-0.0073654843

cov1.0.bias f4 [64]
0	0xbc033045	-0.008007114
1	0x3b9381c3	0.004501553
2	0xbbca0177	-0.0061647254
3	0x3c2d4635	0.010575821
4	0xbb29e022	-0.0025920947
5	0xbd0da4e3	-0.034581076
6	0xbc84dfc9	-0.01621999
7	0x3cfb08e9	0.030643897
8	0xbd129911	-0.035790507
9	0x3d18a693	0.037268233
10	0xbbfae165	-0.0076562637
11	0xbb7700b8	-0.0037689637
12	0x3cc52cda	0.024069238
13	0x3bab2698	0.0052231066
14	0x3cdd20b7	0.026993139
15	0x3c8926d2	0.016742144
16	0xbbdadc7d	-0.0066791163
17	0x3ccca5f7	0.024981482
18	0x3ccbfc03	0.024900442
19	0xbb34ec00	-0.0027606487
20	0x3c77ad56	0.01511701
21	0xbcd52c72	-0.02602217
22	0x3c45f70b	0.012082825
23	0xbc65f757	-0.014036021
24	0xbbeda17e	-0.0072519174
25	0x3c3e0d4b	0.011599849
26	0x3d03b3f6	0.032154046
27	0xbc97e502	-0.018541817
28	0x3bf6961e	0.0075252196
29	0xbcfaf1c6	-0.030632865
30	0x3d2723f2	0.040805764
31	0x3c9bc849	0.019016402
32	0xbc2b20a4	-0.010444794
33	0xbac4d81f	-0.0015018022
34	0x3c8e479d	0.017368132
35	0xbb3acacf	-0.002850223
36	0x3b2170eb	0.0024633955
37	0x3c613701	0.013746024
38	0xbb91e4e5	-0.004452335
39	0x3c873a54	0.016507305
40	0x3caf1b64	0.021375366
41	0x3c6e7803	0.01455498
42	0x3c382fdc	0.011241879
43	0xbcdad96e	-0.026715007
44	0x3c5b52c9	0.013386437
45	0xbbbadfed	-0.0057029636
46	0xbcdfffb7	-0.027343614
47	0x3d112d7b	0.035443764
48	0x3d055527	0.03255191
49	0xbc2b2e40	-0.010448039
50	0x3cf2d686	0.029643308
51	0xbd1c01c0	-0.038087606
52	0xbcbe913a	-0.023262609
53	0xbcac9b19	-0.02107005
54	0xbd1e1f45	-0.03860404
55	0xbd06fb64	-0.03295459
56	0x3b81e20c	0.0039637145
57	0x3d04bfed	0.032409597
58	0x3c3526c8	0.011056609
59	0xb9ba9f6c	-0.00035595463
60	0xbc610758	-0.013734661
61	0xbb8fb82b	-0.004385968
62	0xbd187904	-0.037224784
63	0xbc49b3af	-0.012310906

cov1.1.weight f4 [64]
0	0x3f7dd868	0.99158335
1	0x3f803174	1.0015092
2	0x3f7fdf2b	0.999499
3	0x3f7c54d4	0.9856694
4	0x3f8082ad	1.0039879
5	0x3f7d29d9	0.9889198
6	0x3f8048b0	1.0022182
7	0x3f80712f	1.0034541
8	0x3f7b9a99	0.9828277
9	0x3f7ec92c	0.99525714
10	0x3f7f4f53	0.99730414
11	0x3f7c8e97	0.98655075
12	0x3f7ea211	0.99466044
13	0x3f7c6a68	0.98599863
14	0x3f7e25bf	0.99276346
15	0x3f7c5628	0.98568964
16	0x3f7dbf35	0.99119884
17	0x3f7bef9c	0.9841249
18	0x3f7a9cc5	0.9789546
19	0x3f7f54fd	0.99739057
20	0x3f7d3b35	0.9891847
21	0x3f8057f6	1.0026844
22	0x3f7d9a92	0.9906398
23	0x3f7af057	0.9802298
24	0x3f7b976d	0.9827793
25	0x3f7fa705	0.99864227
26	0x3f7e2e53	0.99289435
27	0x3f7b2785	0.98107177
28	0x3f7cca78	0.9874644
29	0x3f7dad43	0.990925
30	0x3f809003	1.0043949
31	0x3f7bb363	0.983206
32	0x3f7eb49d	0.99494344
33	0x3f8097a4	1.0046277
34	0x3f7c2b8b	0.9850394
35	0x3f7c52d9	0.98563915
36	0x3f7cf12b	0.98805493
37	0x3f7c0ae6	0.9845413
38	0x3f7ec851	0.9952441
39	0x3f7c8bde	0.9865092
40	0x3f7fe45a	0.9995781
41	0x3f80b4c7	1.0055169
42	0x3f7c6be0	0.98602104
43	0x3f7f4342	0.99712
44	0x3f81410f	1.0097979
45	0x3f7ed07d	0.9953688
46	0x3f7df2d6	0.99198663
47	0x3f80c638	1.0060492
48	0x3f7a732c	0.9783199
49	0x3f7d2d85	0.9889758
50	0x3f7e1d24	0.99263215
51	0x3f7cc8ec	0.9874408
52	0x3f7c687c	0.9859693
53	0x3f7d18e4	0.98866105
54	0x3f8181b3	1.0117706
55	0x3f7cb448	0.9871259
56	0x3f7fe986	0.99965703
57	0x3f8009af	1.0002955
58	0x3f7d366b	0.9891116
59	0x3f7ac3b9	0.979549
60	0x3f805248	1.002511
61	0x3f7def2e	0.99193084
62	0x3f7e46d3	0.9932682
63	0x3f7d2e74	0.98899007

cov1.1.bias f4 [64]
0	0xbc271817	-0.010198615
1	0x3b896702	0.0041931877
2	0x3bde82c4	0.006790491
3	0xbc74d4a6	-0.014943277
4	0xbc8880db	-0.016663006
5	0xbc8ef430	-0.017450422
6	0x3c3b17d1	0.0114192525
7	0x3c302568	0.010751106
8	0xbc50515b	-0.012714709
9	0xbbe39fd4	-0.006946543
10	0x3c3d9826	0.01157192
11	0xbc4099ca	-0.011755416
12	0x3c0d5449	0.008626052
13	0x3af0ab02	0.0018361511
14	0xbba1338b	-0.0049194745
15	0xbb77491f	-0.0037732793
16	0xbcc485da	-0.023989607
17	0xbc2d0025	-0.0105591165
18	0xbbf82575	-0.0075728246
19	0x3c994a4e	0.018712189
20	0xbbc1a6e5	-0.005909788
21	0xbba7d193	-0.0051214187
22	0xbc8c1aa6	-0.01710255
23	0x3cad0e39	0.021124946
24	0x3c0ffe58	0.008788668
25	0xbbc32302	-0.005955101
26	0x3c10d31b	0.008839394
27	0xbbe7be16	-0.0070722206
28	0xbc0c3209	-0.008556851
29	0x3c413f31	0.011794851
30	0xba2ba9ad	-0.0006548416
31	0xbb669b86	-0.0035187914
32	0xbc723a2e	-0.014784379
33	0x3be43b17	0.006965052
34	0x3c74d8c8	0.014944263
35	0x3c458877	0.012056462
36	0x3b87ffe4	0.0041503776
37	0x3bc44f70	0.005990915
38	0x3c819176	0.015816431
39	0xbb9c630a	-0.0047725486
40	0xbbb8954c	-0.005633032
41	0x3c12ba91	0.008955614
42	0xbb9ac395	-0.004723022
43	0x3caa475d	0.020785982
44	0x3c491d91	0.012275116
45	0x3bb0aa84	0.005391421
46	0xbb966513	-0.0045896857
47	0xbbe9f88d	-0.0071402253
48	0xbbdf5073	-0.00681501
49	0x3b3a6d35	0.002844644
50	0x3c261d3f	0.010138809
51	0x3b8b7228	0.004255552
52	0x3a978ecd	0.0011562944
53	0xbc649b68	-0.013953067
54	0xbb97e11a	-0.0046349885
55	0xbc85c532	-0.016329382
56	0x3af8204a	0.0018930521
57	0xbc266630	-0.010156199
58	0xbaba2f4c	-0.0014204769
59	0x3c8246c0	0.015902877
60	0x3be7cc1e	0.007073893
61	0x3aed1d85	0.0018090463
62	0xbbcad5b3	-0.0061900257
63	0xbc0c506a	-0.008564094

cov1.1.running_mean f4 [64]
0	0xbe0e5a5e	-0.1390166
1	0x3db62160	0.088930845
2	0xbd88924e	-0.066685304
3	0x3d800792	0.06251444
4	0xbd9bab8e	-0.07601081
5	0xbdc29371	-0.095007785
6	0x3c0e3dba	0.008681709
7	0xbd4fb3be	-0.050708525
8	0xbc6af2c3	-0.0143401055
9	0x3e5597a2	0.20858625
10	0xbd95df7b	-0.07318016
11	0xbd5d0985	-0.053964157
12	0xbdb779b8	-0.08958763
13	0xbd451ccf	-0.048123177
14	0x3cfe960b	0.031077405
15	0x3cba94cc	0.02277603
16	0xbde83d50	-0.113398194
17	0x3cd95d97	0.026533885
18	0x3ce3f223	0.02782542
19	0xbc08682b	-0.008325617
20	0x3b5de6ab	0.0033859413
21	0x3dbba5cd	0.09162483
22	0xbdc91e8c	-0.098202795
23	0xbd5809d6	-0.052743755
24	0xbd087c7e	-0.03332185
25	0xbe1c8e08	-0.15288556
26	0x3dfc611b	0.12323209
27	0xbd04258c	-0.03226237
28	0x3d39fa69	0.045404825
29	0x3d823052	0.063568726
30	0xbde19c51	-0.11016143
31	0x3e149abb	0.1451215
32	0xbe4b15de	-0.1983256
33	0x3dd50f15	0.10403267
34	0xbdca8aac	-0.09889731
35	0x3e0432c1	0.12909986
36	0xbd3e6ee7	-0.046492483
37	0xbd8f49cd	-0.06996498
38	0x3b6bb410	0.003596548
39	0x3de1d739	0.110273786
40	0x3c6b8586	0.014375096
41	0x3e151d90	0.14562058
42	0xbce5ee4b	-0.028067729
43	0x3e04eb1e	0.12980315
44	0x3d978b16	0.073995754
45	0xbd660f66	-0.05616703
46	0x3c52e62b	0.012872259
47	0xbda60371	-0.08106125
48	0x3e371219	0.17877997
49	0x3da377df	0.07981848
50	0x3d0adbb8	0.033900946
51	0xbe0e4fe3	-0.13897662
52	0x3d683449	0.056690488
53	0xbd91f79f	-0.07127308
54	0xbd66f71b	-0.056388002
55	0xbe2af3a8	-0.1669451
56	0xbb0fe6c0	-0.0021957606
57	0xbd94c508	-0.07264143
58	0x3dc6f217	0.09714144
59	0xbcfafa67	-0.03063698
60	0x3db106dd	0.08643887
61	0xbd805dbf	-0.06267881
62	0x3d1d372b	0.03838269
63	0xbd000287	-0.03125241

cov1.1.running_var f4 [64]
0	0x3f9a17f4	1.203856
1	0x3f456e64	0.7712157
2	0x3e7669c9	0.24063791
3	0x3f1972b0	0.59940624
4	0x3f00e89e	0.50354946
5	0x3ee4b2e5	0.44667736
6	0x3f22bfa9	0.635737
7	0x3e91f7a1	0.28509238
8	0x3f341cbd	0.7035635
9	0x3fcdc1da	1.6074784
10	0x3f39daca	0.7259947
11	0x3f068351	0.5254412
12	0x3ec4f328	0.38466763
13	0x3f32fdd2	0.6991855
14	0x3f9a0a3a	1.2034371
15	0x3ddc1d8c	0.10747823
16	0x3f0bef9b	0.54662484
17	0x3edcd336	0.4312989
18	0x3e9d1a43	0.306841
19	0x3f89c73e	1.0763929
20	0x3d8dd9ed	0.06926332
21	0x3f85d1ce	1.0454652
22	0x3ec5c5c0	0.38627434
23	0x3f1dd0ec	0.61646914
24	0x3e07c51f	0.1325879
25	0x3ff0773b	1.8786386
26	0x3f084527	0.5323052
27	0x3f1f89b2	0.6231948
28	0x3f618d76	0.8810648
29	0x3e9f2df0	0.31089735
30	0x3fa5e37b	1.2960047
31	0x3f5a5757	0.8528952
32	0x3fd87672	1.6911147
33	0x3e24a06f	0.16076826
34	0x3f888215	1.0664698
35	0x3f9a9796	1.207751
36	0x3f01a038	0.506351
37	0x3f7e94c6	0.9944576
38	0x3f860156	1.0469158
39	0x3e678b91	0.22611834
40	0x3f4deb40	0.8043709
41	0x3e8a4290	0.27003908
42	0x3e268dd6	0.16265044
43	0x3ff05030	1.8774471
44	0x3f194da4	0.59884095
45	0x3f1f512c	0.62233233
46	0x3f0ce02b	0.55029553
47	0x3f65c2a2	0.8975011
48	0x3f346764	0.7047026
49	0x3f0817ca	0.531613
50	0x3f09f460	0.5388851
51	0x3f8df947	1.1091698
52	0x3e756e74	0.23967916
53	0x3e8ec6d7	0.27886078
54	0x3f16c4a0	0.58893776
55	0x3f69528c	0.9114158
56	0x3e7a7ee4	0.24462467
57	0x3f9d59bb	1.2293009
58	0x3f92379d	1.1423222
59	0x3f4bc831	0.7960234
60	0x3f6c0d71	0.9220801
61	0x3e8c6798	0.27422786
62	0x3f7d7f24	0.99022126
63	0x3e88f294	0.26747572

cov2.0.weight f4 [64, 128, 3, 3]
0	0xbc95d3b1	-0.018289419
1	0xbb75f5bd	-0.0037530505
2	0x3b29eb27	0.0025927515
3	0xbc7f0d4a	-0.015567133
4	0x3d052393	0.03250463
5	0xbc9194b9	-0.017771112
6	0xbca893d8	-0.02057831
7	0x3c9a445a	0.01883142
8	0x3c91f417	0.017816586
9	0xbbfdbc14	-0.007743368
10	0x3cc1a7e9	0.023639636
11	0x3c39d65e	0.011342613
12	0x3d171ada	0.036890842
13	0x3ca193a3	0.019723719
14	0x3ccc32a6	0.024926495
15	0xbc8204a6	-0.015871357
16	0x3cd82109	0.02638294
17	0x3cba5eb8	0.022750244
18	0xbc9b1994	-0.018933095
19	0x3bbd4407	0.0057759318
20	0x3c8d7c63	0.017271226
21	0xbc2a76bd	-0.010404286
22	0x3ba77f92	0.005111643
23	0xbc5cc298	-0.013474129
24	0xbb7b8c87	-0.0038383321
25	0x3cd02f2c	0.025413118
26	0x3ae98230	0.0017815288
27	0x3c8ac2ab	0.016938528
28	0xbc6ed549	-0.014577218
29	0x3cb2a603	0.021807676
30	0x3c6ebbc8	0.014571138
31	0x3ca6556b	0.020304402
32	0x3b53a965	0.0032297012
33	0xbc4364e1	-0.011925907
34	0xbc907f1e	-0.01763874
35	0xbab107c3	-0.0013506341
36	0xbc26d9aa	-0.010183731
37	0xbc450c92	-0.012026923
38	0x3cf69d18	0.030104205
39	0xbcdf6093	-0.02726773
40	0xbc634eeb	-0.013873796
41	0xbc655ac4	-0.013998691
42	0xbc21216b	-0.009834628
43	0xbc87925e	-0.016549286
44	0xba2740b6	-0.0006380187
45	0x3c7f13cf	0.015568688
46	0x3c96bf63	0.018401807
47	0xbc76b4a3	-0.015057716
48	0x3bc8466f	0.006111912
49	0x3b12e060	0.002241157
50	0xbc8b4e62	-0.01700515
51	0x3c7f63ef	0.015587791
52	0x3c079d8a	0.008277306
53	0xbcad4fc1	-0.021156194
54	0xbce405e4	-0.02783484
55	0xbbb03d41	-0.005378396
56	0x3cdfdb7b	0.027326336
57	0x3cae876a	0.021304805
58	0x3c8a2fdb	0.016868522
59	0xbbfa27db	-0.0076341457
60	0x3c6625de	0.014047114
61	0x3d02cb48	0.031932145
62	0xbbb50c66	-0.0055251596
63	0xbccdfeb4	-0.025145866
64	0x3cec8dd3	0.02887622
65	0xbc8bc73b	-0.017062774
66	0xbb221f7d	-0.0024738007
67	0xbc2565ce	-0.010095073
68	0x3b6b59c9	0.003591167
69	0x3ca0f978	0.019650206
70	0xbcbcecd2	-0.023062143
71	0xbca017e0	-0.019542634
72	0x3cae6c83	0.021291977
73	0x3cb6a59a	0.022295762
74	0xba8fde47	-0.0010976278
75	0x3c290093	0.010315078
76	0xbc9c7fcf	-0.019103913
77	0x3c14514d	0.009052587
78	0xbcb6730f	-0.022271661
79	0x3c379558	0.01120504
80	0xbd0dcb49	-0.034617696
81	0xbbfa1bbf	-0.007632702
82	0x3d002615	0.031286318
83	0xbc903783	-0.017604595
84	0xbc91d2e0	-0.017800748
85	0x3ceb4a9e	0.028722104
86	0x3c8b409a	0.016998578
87	0x3cbf39f1	0.023343058
88	0xbc542d70	-0.012950286
89	0xbc4aeb33	-0.012385177
90	0xbcb3eae5	-0.021962592
91	0xbbe464a5	-0.0069700056
92	0x3c6a214d	0.014290166
93	0xbcd005b4	-0.025393344
94	0xbc665774	-0.014058936
95	0x3c65f105	0.014034514
96	0xbb5f6533	-0.003408742
97	0xbc85da87	-0.016339554
98	0xbc4bc5c6	-0.01243729
99	0x3c9dcb59	0.019262003
100	0xbcaf2b2a	-0.021382887
101	0xbba0033f	-0.0048831995
102	0x3c8ae2b7	0.01695381
103	0x3c8fa018	0.017532393
104	0x3ccf3356	0.025293034
105	0xbc4b1aa9	-0.012396493
106	0xbb9650c8	-0.0045872666
107	0xbc969d20	-0.01838547
108	0xbd01355e	-0.031545036
109	0xbc8b2e2a	-0.016989786
110	0xbc81e0c0	-0.01585424
111	0xbcf07d6f	-0.029356686
112	0xbc3c211a	-0.011482501
113	0x3cd7b734	0.026332475
114	0x3bdd6edb	0.0067576
115	0x3aa87561	0.0012852364
116	0xbcde3129	-0.02712305
117	0x3c8b763d	0.017024154
118	0x3cfbef6c	0.030753814
119	0x3c9a86be	0.018863078
120	0xbc23f4b7	-0.010007075
121	0xbb5313d2	-0.0032207859
122	0x3cf44013	0.02981571
123	0x3ca7d9f0	0.020489663
124	0x3c22dc94	0.009940285
125	0x3b6814e8	0.0035412852
126	0x3cdfa5f1	0.027300807
127	0x3cb2ec49	0.021841185
128	0xbcbeaaaa	-0.023274738
129	0x3ca55e77	0.020186646
130	0xbc3f514e	-0.011677099
131	0x3cfafabb	0.030637136
132	0x3ca1d1df	0.019753395
133	0xbc19465d	-0.009355155
134	0xbb2785c5	-0.002556191
135	0x3ca2c7a9	0.019870596
136	0x3c346c43	0.01101214
137	0x3cae30d3	0.021263516
138	0xbcfcb8f1	-0.030849906
139	0xba941e00	-0.0011300445
140	0xbcd497a9	-0.025951223
141	0x3c9742bb	0.018464437
142	0x3a7e2cca	0.0009696005
143	0xbd03b449	-0.032154355
144	0x3be8f1ee	0.0071089184
145	0xbd0ec5ce	-0.03485661
146	0xbbe140e2	-0.0068741897
147	0xbbb50a3e	-0.0055249026
148	0x3bd08501	0.0063635116
149	0xbc2f509a	-0.010700369
150	0x3ca2243d	0.01979267
151	0xbcbccd4a	-0.023047108
152	0x3c380b37	0.011233143
153	0x3bc705ca	0.006073688
154	0x3c15c9f9	0.009142392
155	0x3cc14fa8	0.023597553
156	0x3cd91be3	0.026502555
157	0xbccde8ed	-0.025135482
158	0x3c88d64b	0.016703745
159	0x3c41e586	0.011834508
160	0xbc5d5c64	-0.013510797
161	0x3ba340e9	0.004982103
162	0xbcd8277f	-0.02638602
163	0x3ce8ee07	0.028433813
164	0xbcbb39e9	-0.022854762
165	0xbb37febc	-0.0028075418
166	0x3ccb6bfa	0.02483176
167	0xbcca5725	-0.024699757
168	0xbb7c69b1	-0.0038515145
169	0x3c6e9ad2	0.014563279
170	0x3ca36e58	0.019950077
171	0xbcd3e18f	-0.02586439
172	0x3a0c186e	0.00053442165
173	0xbcbc58ea	-0.022991616
174	0x3a8f723c	0.0010944079
175	0xbc72e5b6	-0.014825275
176	0xbbf00f04	-0.0073260088
177	0xbb9c2910	-0.004765637
178	0xbcf5cd39	-0.030005084
179	0xbbdf812e	-0.0068208193
180	0xbbbae23e	-0.0057032397
181	0x3c339a51	0.010962085
182	0xbb855e48	-0.004070077
183	0x3ca89323	0.020577973
184	0x3b0bcede	0.002133302
185	0x3c3aa7cf	0.011392548
186	0x3ba2186b	0.0049467585
187	0xbcf8fe9a	-0.030394841
188	0x3b809799	0.003924322
189	0x3b1e0d83	0.002411694
190	0x3ce53160	0.027977645
191	0xbcaea03c	-0.02131664
192	0x3c953d2b	0.018217644
193	0x3c42054c	0.011842083
194	0x3b53d359	0.0032322018
195	0xbcd17812	-0.02556995
196	0xbc34fb83	-0.011046293
197	0x3d0eff02	0.034911163
198	0xbc6bfa60	-0.014402956
199	0x3a747059	0.00093246024
200	0x3cc60542	0.024172429
201	0xbc8f7b98	-0.017514989
202	0x3c6333c3	0.013867321
203	0x3cb43e43	0.022002345
204	0xbcd4d1e7	-0.025978995
205	0x3cb23ba5	0.021756956
206	0xbbdc7589	-0.0067278785
207	0xbcd0de63	-0.025496667
208	0xbc113d66	-0.008864736
209	0xbad2615d	-0.0016050745
210	0xbcad3716	-0.021144431
211	0xbbd37113	-0.0064526885
212	0x3cc1162b	0.02357014
213	0x3c85bed2	0.016326342
214	0xbc9f05b6	-0.019411903
215	0xbac1bdc8	-0.0014781291
216	0x3c193154	0.00935014
217	0xbc45bae2	-0.012068482
218	0x3c00350b	0.007825146
219	0x3cff94cc	0.031198882
220	0x3920a28f	0.00015319347
221	0xbbecb01f	-0.0072231437
222	0xbc75542f	-0.014973684
223	0x3c4b0071	0.012390242
224	0xbc8b7215	-0.017022172
225	0xbd0382a8	-0.032107025
226	0x3c1249eb	0.008928756
227	0xbd07a666	-0.033117674
228	0xbd16154d	-0.036641408
229	0xbcd8a5ea	-0.026446301
230	0x3cb21413	0.021738088
231	0xbcb27246	-0.021783005
232	0x3c5b369a	0.013379717
233	0xbcb19932	-0.021679495
234	0x3c8990ba	0.016792644
235	0x3c3e6393	0.01162042
236	0xbadbfc5f	-0.0016783586
237	0xbc20be3e	-0.009810982
238	0x3c04c81c	0.00810435
239	0xbb67b93e	-0.0035358216
240	0x39017953	0.00012347595
241	0x3c0b4dbb	0.008502419
242	0xba6b3e73	-0.0008973844
243	0xbd0fd4d3	-0.035115074
244	0x3b69a256	0.0035649738
245	0x3c9127e4	0.017719217
246	0xbccf5441	-0.02530873
247	0xbb3d6a56	-0.0028902492
248	0xbce9c1f4	-0.028534867
249	0xbc86acc1	-0.016439797
250	0x3c635f93	0.013877767
251	0xbb066cc7	-0.0020511614
252	0x3cd8e437	0.026476009
253	0xbcb9eb54	-0.022695221
254	0x3ca060fc	0.019577496
255	0x3c4eadfa	0.012614721

cov2.0.bias f4 [64]
0	0x3cae67c5	0.021289716
1	0xbc61833d	-0.0137642
2	0x3c4b4954	0.0124076195
3	0x3c42f751	0.011899785
4	0x3c7fd83f	0.015615522
5	0xbc8aa6f8	-0.01692532
6	0x3c3517b8	0.011053018
7	0xbc0bb571	-0.008527146
8	0xbc9d30a8	-0.01918824
9	0xbce4519d	-0.027870947
10	0xbbb21f3b	-0.005435852
11	0xbb98d8e8	-0.004664529
12	0x3aca3f97	0.0015430328
13	0xbc29d424	-0.01036552
14	0xbb935629	-0.004496355
15	0xbc397494	-0.011319298
16	0x3bcec069	0.006309558
17	0x3c9f374f	0.019435553
18	0xbb6ecc8c	-0.0036437837
19	0x3c63d2b2	0.013905214
20	0xb9c21b6b	-0.0003702299
21	0xbbbdaa43	-0.005788119
22	0x3c56a40a	0.013100633
23	0x3a3b0089	0.00071335636
24	0x3c40eb7d	0.011774895
25	0x3b9a3a7a	0.004706678
26	0x3c5dfa3a	0.013548428
27	0xbb05aeb3	-0.0020398318
28	0xbcacde4d	-0.021102095
29	0x3cb60ac4	0.02222193
30	0x3c49067d	0.012269613
31	0xbc03cca4	-0.008044396
32	0xbcee411d	-0.029083783
33	0xbcd148b6	-0.025547367
34	0xbc48cca5	-0.012255822
35	0x3c3a05a3	0.011353883
36	0xbc79b5a5	-0.015241061
37	0xbbbacf6b	-0.0057009957
38	0xbcb40042	-0.02197278
39	0xbc12f547	-0.0089696115
40	0xbc245720	-0.010030538
41	0x3cfa0da6	0.030524086
42	0x3cf7eaa1	0.030263247
43	0xbc197d83	-0.009368303
44	0xbc599ec2	-0.01328248
45	0xba17ee63	-0.0005795715
46	0x3a6dc8f1	0.0009070775
47	0x3ca73d43	0.020414954
48	0x3b2ddd44	0.002652959
49	0xbcd69d9e	-0.026198205
50	0xbc2e974a	-0.010656187
51	0xbca5c4eb	-0.0202355
52	0xb9d46078	-0.00040507666
53	0x3cf5d5cf	0.030009178
54	0x3c9cb4aa	0.019129116
55	0x3c23018c	0.009949099
56	0x3cc0b9da	0.02352612
57	0x3c9c7778	0.019099936
58	0xbbbde1aa	-0.0057947235
59	0x3c10655d	0.008813229
60	0x3c2e17ee	0.0106258225
61	0x3cdaabe5	0.026693294
62	0xbbd3b41d	-0.00646068
63	0xb96c69bb	-0.00022546102

cov2.1.weight f4 [64]
0	0x3f8125b3	1.008963
1	0x3f7e859b	0.99422616
2	0x3f7e4307	0.99321026
3	0x3f803e6f	1.0019053
4	0x3f7c24c5	0.98493606
5	0x3f7ead42	0.9948312
6	0x3f81300c	1.0092788
7	0x3f811a23	1.0086101
8	0x3f803c39	1.0018378
9	0x3f7d4189	0.98928124
10	0x3f8082b8	1.0039892
11	0x3f806c04	1.0032964
12	0x3f8093ef	1.0045146
13	0x3f8006e9	1.0002109
14	0x3f7dd104	0.9914706
15	0x3f7f4753	0.9971821
16	0x3f818fec	1.0122046
17	0x3f80a988	1.0051737
18	0x3f7e1632	0.9925262
19	0x3f7d7204	0.990021
20	0x3f7f4027	0.99707264
21	0x3f7f54e2	0.99738896
22	0x3f7fff53	0.9999897
23	0x3f7eeef9	0.99583393
24	0x3f7ffb3c	0.9999273
25	0x3f7e39c4	0.99306893
26	0x3f7f7b4d	0.9979752
27	0x3f801695	1.0006891
28	0x3f7cbfde	0.98730266
29	0x3f80c20f	1.0059222
30	0x3f80629d	1.0030094
31	0x3f7e75dd	0.99398595
32	0x3f7f4d9d	0.99727803
33	0x3f7f638b	0.99761266
34	0x3f81584f	1.0105075
35	0x3f82b715	1.0212122
36	0x3f7dd483	0.9915239
37	0x3f7eebb9	0.99578434
38	0x3f807c77	1.0037984
39	0x3f7e7de7	0.9941086
40	0x3f7e5b30	0.9935789
41	0x3f8126ac	1.0089927
42	0x3f813978	1.0095663
43	0x3f807bc0	1.0037766
44	0x3f7e0758	0.99229956
45	0x3f7e16df	0.9925365
46	0x3f80f7b8	1.0075598
47	0x3f7de401	0.9917603
48	0x3f8129f0	1.0090923
49	0x3f7eb78e	0.9949883
50	0x3f7e1fea	0.99267447
51	0x3f815f90	1.0107288
52	0x3f7dfc12	0.99212754
53	0x3f7e1bb8	0.99261045
54	0x3f7f8e24	0.99826264
55	0x3f7e3210	0.9929514
56	0x3f7dad03	0.9909212
57	0x3f7e1d38	0.99263334
58	0x3f7f8a18	0.9982009
59	0x3f7fd52e	0.9993466
60	0x3f801b58	1.0008345
61	0x3f7f5674	0.9974129
62	0x3f809b23	1.0047344
63	0x3f802273	1.0010513

cov2.1.bias f4 [64]
0	0xbc257f8e	-0.010101212
1	0xbc46f013	-0.012142199
2	0xbc6dd535	-0.014516165
3	0xb8c920d3	-9.590541e-05
4	0xbca8c7de	-0.020603117
5	0xbbf8fdb7	-0.0075986045
6	0x3c172afb	0.009226556
7	0x3b8cd6d0	0.0042980686
8	0xbb431835	-0.0029769067
9	0xbc94154e	-0.018076565
10	0x3af00693	0.0018312506
11	0xbb8085fb	-0.0039222217
12	0x3b14c00c	0.0022697477
13	0xbc3706df	-0.011171072
14	0xbc3ef3db	-0.011654819
15	0xbc58bae9	-0.013228157
16	0x3b0da145	0.0021611017
17	0xbc0ff5f5	-0.008786668
18	0xbc1dcd2c	-0.009631436
19	0xbc877be1	-0.016538562
20	0xbbc8e7a4	-0.0061311293
21	0xb9916dda	-0.000277384
22	0x3b818e0b	0.0039537004
23	0xbbf7fe46	-0.0075681536
24	0xbc476ce3	-0.012171957
25	0xbc943e81	-0.01809621
26	0xbc4a6863	-0.012353989
27	0xbc4b6c5a	-0.01241597
28	0xbc5e8f67	-0.0135839945
29	0xbbdf7157	-0.006818931
30	0xbc5d912d	-0.013523382
31	0xbc143f9c	-0.009048369
32	0xbc1f7a63	-0.009733769
33	0xbbcdd4ae	-0.006281457
34	0x3abe6aef	0.0014527718
35	0xbb86eba4	-0.004117446
36	0xbc85dd9d	-0.016341025
37	0x3c2c191a	0.010504032
38	0x3bba6977	0.005688842
39	0xbc0a3008	-0.008434303
40	0xbbf030f4	-0.0073300544
41	0xbc45f16c	-0.012081485
42	0xbb485611	-0.0030568878
43	0xbbc348e7	-0.0059596184
44	0xbc09051c	-0.008363035
45	0xbc713e2c	-0.014724296
46	0x3aaa260a	0.0012981307
47	0xbcacfa55	-0.021115461
48	0x3c1b055d	0.009461728
49	0xbc1ef2f8	-0.009701483
50	0xbc1b6ecd	-0.009486866
51	0x3b9ee535	0.004849101
52	0xbc618f4b	-0.013767074
53	0xbbf5a388	-0.007496301
54	0xbc0891be	-0.008335529
55	0xbc8b5f02	-0.017013077
56	0xbc2331f9	-0.009960645
57	0xbc19cdd1	-0.009387449
58	0xbb0a8576	-0.0021136678
59	0x3c0e5d30	0.00868921
60	0x3be6d12c	0.007043978
61	0xbc218ffc	-0.009860989
62	0xbc0dbb77	-0.008650652
63	0xbc30e980	-0.010797858

cov2.1.running_mean f4 [64]
0	0x3e10efbd	0.14153953
1	0xba2eaa03	-0.0006662907
2	0x3e316ec4	0.1732741
3	0x3f09db26	0.5385002
4	0x3e8ca0aa	0.27466327
5	0x3e2562eb	0.16151015
6	0x3e259663	0.16170649
7	0x3d510bf8	0.051036805
8	0x3e08a2a6	0.13343295
9	0x3e634f1c	0.22198147
10	0x3d99837c	0.07495782
11	0x3f0ec846	0.55774343
12	0xbe8a8280	-0.2705269
13	0x3eb114c1	0.34586146
14	0x3f1cd5f9	0.61263996
15	0x3edb5639	0.4283922
16	0xbda5d65c	-0.080975264
17	0x3e83273b	0.25615868
18	0x3ed08d22	0.40732676
19	0x3e700ad1	0.23441626
20	0x3e674609	0.2258531
21	0xbdd7fad3	-0.10545888
22	0xbb9df86e	-0.004820875
23	0x3ef912d2	0.4864717
24	0x3e2e0468	0.16993868
25	0x3e816fed	0.25280705
26	0x3d839262	0.06424405
27	0x3d9ff85d	0.078110434
28	0xbda59f20	-0.08086991
29	0x3e86e670	0.26347685
30	0x3e2cf6eb	0.16891067
31	0x3ea7a49f	0.32742783
32	0x3ccf8b93	0.025335109
33	0x3e910ef0	0.2833171
34	0xbe3e727e	-0.18598363
35	0x3e841690	0.25798464
36	0xbd1c43f0	-0.038150728
37	0xbe8a5c2d	-0.2702345
38	0x3ea6ce28	0.3257916
39	0x3e981c5e	0.29709142
40	0xbe83a835	-0.2571427
41	0x3f0d8a1f	0.5528888
42	0x3ee9086d	0.4551424
43	0x3e804f4e	0.25060505
44	0x3c8f2297	0.017472548
45	0x3eaa8627	0.33305475
46	0x3c4a3f4a	0.012344191
47	0x3e698e08	0.22808087
48	0xbddfda33	-0.1093029
49	0xbc031739	-0.008001142
50	0x3e19f98f	0.15036605
51	0x3e0e4fe9	0.13897671
52	0x3efa9045	0.48938194
53	0xbe411ef4	-0.18859464
54	0x3e1740b9	0.14770783
55	0x3ec3e1d7	0.3825824
56	0xba90b246	-0.0011039458
57	0x3eaedb0f	0.34151503
58	0x3ec2f303	0.38076028
59	0x3a28a128	0.00064327056
60	0xbe00b1b9	-0.12567796
61	0x3eb09b16	0.3449332
62	0x3e1c3db4	0.15257913
63	0xbc062c8b	-0.008189331

cov2.1.running_var f4 [64]
0	0x4080d333	4.025781
1	0x403baec2	2.9325414
2	0x3f1f2745	0.62169296
3	0x4070eaf6	3.7643409
4	0x4085513f	4.1661677
5	0x3ebd6475	0.36990705
6	0x409d081f	4.9072413
7	0x4004903a	2.071303
8	0x40786098	3.8808956
9	0x3f31bcad	0.6942852
10	0x409f10cf	4.970802
11	0x3f809e32	1.0048277
12	0x3da7b44a	0.08188684
13	0x3e833f9b	0.25634465
14	0x408f0907	4.469852
15	0x3e87f2b1	0.26552346
16	0x3eafd4b2	0.3434196
17	0x4058b752	3.386189
18	0x3ea42560	0.32059765
19	0x3ed7ee04	0.4217378
20	0x3f6918a9	0.91053253
21	0x40bccca0	5.8999786
22	0x402b0f6c	2.6728163
23	0x40b064a1	5.512284
24	0x3f6b0b03	0.9181368
25	0x3e5d6ee1	0.21624328
26	0x3f12af45	0.5729869
27	0x3ee7674f	0.45196006
28	0x4096d140	4.713043
29	0x40934fdb	4.603498
30	0x3fda39bd	1.704887
31	0x3f32e6ca	0.69883406
32	0x40d91cc0	6.7847595
33	0x3e345bfd	0.17613216
34	0x406071bc	3.5069418
35	0x3e0a5eb9	0.13512696
36	0x3d92c44f	0.07166349
37	0x3fd4aa80	1.6614532
38	0x40098b2e	2.1491199
39	0x3ecb02e2	0.39650637
40	0x3eab29a6	0.33430213
41	0x3f424a5b	0.7589471
42	0x3f1b4e1f	0.6066608
43	0x407d13db	3.954337
44	0x3f240ab6	0.64078844
45	0x3e9ad338	0.30239272
46	0x3f254ed4	0.6457341
47	0x3f1646cb	0.5870177
48	0x3ef2053f	0.47269627
49	0x40d3dc09	6.6206098
50	0x3ec17a9e	0.37788862
51	0x3fbc2d50	1.4701328
52	0x3ffe10f7	1.9848927
53	0x3f231bd1	0.6371432
54	0x3fc4690b	1.5344557
55	0x3e7af220	0.24506426
56	0x3f9d486a	1.2287724
57	0x3fc552d1	1.5415899
58	0x40a98eb7	5.2986712
59	0x4084d49a	4.1509523
60	0x40110204	2.265748
61	0x4013adb0	2.307476
62	0x400484b7	2.0706003
63	0x3ed2837f	0.4111595

out_1.1.weight f4 [1, 128, 3, 3]
0	0xbca3be5b	-0.01998823
1	0x3c551946	0.013006514
2	0xbb8656c1	-0.0040996973
3	0xbc0c4bfd	-0.008563039
4	0x3c0ead4e	0.008708311
5	0x3c7e1be1	0.015509577
6	0xbcb00976	-0.021488886
7	0x3c17f983	0.009275797
8	0xbbf0487b	-0.007332859
9	0xbc502970	-0.012705192
10	0xbcd374e0	-0.025812566
11	0x3ca33db0	0.019926876
12	0x3c7b0260	0.01532039
13	0xbcc760f2	-0.02433822
14	0xbcfccb83	-0.03085876
15	0x3cab2c91	0.020895274
16	0xbc228ef4	-0.009921778
17	0x3c1131b9	0.008861952
18	0xbccee9ca	-0.025257964
19	0xbc7d4120	-0.015457422
20	0x3c6ccfe6	0.014453864
21	0xbb16659f	-0.0022948754
22	0xbd02a19b	-0.0318924
23	0x3cb355e1	0.021891536
24	0xbc9b028d	-0.018922115
25	0xbcfafbd7	-0.030637665
26	0xbcabfecc	-0.02099552
27	0xbc7aab07	-0.015299565
28	0xbd015eed	-0.03158467
29	0xba178bbb	-0.00057810143
30	0xbb482c7b	-0.003054409
31	0x3c67a0ce	0.01413746
32	0xbce365c6	-0.02775849
33	0xbd22316e	-0.03959792
34	0x3bd0591e	0.00635828
35	0xbc051f44	-0.00812513
36	0xbcdf3f68	-0.027251914
37	0x3c8e4625	0.017367432
38	0xbd182e1a	-0.03715334
39	0x3c0ad5f6	0.008473864
40	0xbc25983d	-0.010107097
41	0xbcb4ca61	-0.022069158
42	0x3c540504	0.012940649
43	0xbd1184e5	-0.03552713
44	0xbd29cf35	-0.041457374
45	0x3d149cdc	0.036282405
46	0xbbedcd9d	-0.007257177
47	0x3d0407af	0.03223389
48	0xbc9c4dff	-0.01908016
49	0xbc5b0ba5	-0.0133694755
50	0x3bc64cfe	0.0060516587
51	0xbc275768	-0.01021371
52	0x3be07a3d	0.0068505094
53	0x3c9175dd	0.017756397
54	0xbd067b74	-0.032832578
55	0xbd0ef72c	-0.03490369
56	0x3b714305	0.0036813628
57	0x3c308f69	0.010776379
58	0x3c48d5e7	0.01225803
59	0xbc897b32	-0.016782377
60	0x3be0d0c0	0.0068608224
61	0x3c0c308b	0.008556495
62	0xbc73e79a	-0.014886761
63	0xbca26a17	-0.019825978
64	0x3bed0049	0.0072327
65	0x3cbe4c65	0.023229787
66	0x3ccadddd	0.024763996
67	0xbc0fe3ce	-0.00878234
68	0xba16957d	-0.00057443214
69	0xbb7a41f8	-0.0038186293
70	0x3cdfad41	0.027304294
71	0xbc06ec7a	-0.008235091
72	0x3c80a46d	0.015703404
73	0x3c7160d9	0.014732563
74	0xbcd8769d	-0.026423747
75	0x3c3a9c16	0.011389753
76	0xbb036287	-0.002004774
77	0x3c90c334	0.017671205
78	0xbc8d6f7c	-0.017265074
79	0x3ccaf1e2	0.024773542
80	0x3c27474e	0.010209871
81	0xbafe67b4	-0.0019409568
82	0x3c7a7f95	0.015289207
83	0xbc1262ec	-0.008934718
84	0x3c1e8587	0.00967539
85	0xbcfbf9ee	-0.030758824
86	0x3a2b5815	0.00065362576
87	0xbcefb2b6	-0.02926002
88	0xbced9092	-0.0289996
89	0xbc81ca31	-0.015843483
90	0x3c7510b4	0.014957596
91	0x3ca9fa32	0.020749185
92	0xbae2d3d7	-0.0017305565
93	0xbbfca40b	-0.007709985
94	0x3ce97d23	0.028502053
95	0xbaeebf54	-0.0018214979
96	0x3d05ea60	0.03269422
97	0x3bfe377d	0.0077580796
98	0xbc889841	-0.016674163
99	0xbd16fad1	-0.03686029
100	0xbc414b32	-0.011797713
101	0x3c378705	0.011201625
102	0x3bb66019	0.005565655
103	0x3b392e5d	0.0028256394
104	0xbd21150b	-0.03932671
105	0xb91ff25b	-0.00015253706
106	0x3b07c8a3	0.0020718954
107	0xbcb9c75e	-0.022678073
108	0xbc9b7bea	-0.018979985
109	0x3cc04ecf	0.023475079
110	0x3a71ba7a	0.00092212076
111	0x3b403f19	0.0029334484
112	0x3c457b93	0.012053388
113	0xbcc1f41f	-0.023675976
114	0xbca95db3	-0.020674562
115	0xbbf4ba76	-0.007468517
116	0xbba29123	-0.0049611493
117	0x3d0fc237	0.035097327
118	0xbc74760f	-0.0149207255
119	0xbc6c1096	-0.014408251
120	0x3b402d9f	0.0029324067
121	0xbc839c49	-0.016065734
122	0x3c9084d4	0.017641462
123	0x3b2109e5	0.0024572548
124	0x3d11f754	0.03563626
125	0x3c3f49e6	0.011675334
126	0xbd048e72	-0.03236241
127	0xbca9f88e	-0.020748403
128	0xbc84f81d	-0.01623159
129	0xbb4e3c64	-0.00314691
130	0xbd1adbba	-0.037807204
131	0x3c16c4c7	0.009202189
132	0x3c62ccca	0.013842771
133	0xbcfaaf8d	-0.030601287
134	0xbbfa51d2	-0.0076391483
135	0x3a7c564f	0.0009625898
136	0xbcefd40d	-0.029275918
137	0xbcf438d5	-0.029812256
138	0x3c92d304	0.017922886
139	0xbaf33969	-0.0018556538
140	0xbcee5ff0	-0.029098481
141	0x3be5365c	0.0069950055
142	0xbce13b2a	-0.027494032
143	0xbce63466	-0.028101157
144	0xbc824144	-0.015900262
145	0x3d05b86e	0.03264659
146	0xbb373fe0	-0.0027961656
147	0x3cbe7118	0.023247287
148	0xbc855f3a	-0.01628076
149	0x3cbee840	0.023304105
150	0x3c056bb0	0.0081433505
151	0x3b9ff11b	0.004881037
152	0x3ceee4d3	0.029161846
153	0xbc9dfb7e	-0.01928496
154	0xbc57f819	-0.01318171
155	0xbcb54e16	-0.02213196
156	0xbbd1ef1f	-0.0064066793
157	0xba882d2f	-0.0010389442
158	0xbbdf7cb1	-0.0068202843
159	0xb77be1c2	-1.5013329e-05
160	0xbc83f22f	-0.016106693
161	0xbccbcd82	-0.024878267
162	0xbb68b311	-0.0035507123
163	0x3ccbcb85	0.02487732
164	0xbce06583	-0.027392155
165	0xbb4f1259	-0.003159663
166	0xbccadc2c	-0.02476319
167	0x3a680fbd	0.0008852443
168	0x3c9d9442	0.019235734
169	0xbc466c39	-0.012110763
170	0xbc01deb7	-0.0079266345
171	0xbad93159	-0.0016570493
172	0xbcac68d9	-0.021046089
173	0xbd0f255b	-0.034947734
174	0xbccbab3d	-0.024861926
175	0x3ba6c56b	0.005089452
176	0xbabb4130	-0.0014286395
177	0x3c978a6d	0.018498624
178	0x3c8bf262	0.01708335
179	0xbcd0f9ca	-0.025509734
180	0xbcb27022	-0.021781985
181	0xbb3bf7d4	-0.0028681653
182	0x3cdb1107	0.026741518
183	0xba4075a0	-0.0007341746
184	0xbc615f9d	-0.013755706
185	0xbb8c4ac6	-0.0042813746
186	0xbcc822ba	-0.024430621
187	0xbc7d91d2	-0.015476661
188	0xbb28e53d	-0.0025771402
189	0x3c13287e	0.008981822
190	0x3a371162	0.0006983486
191	0xbcb14d5f	-0.021643339
192	0x3c2f3120	0.010692865
193	0x3d027b92	0.031856127
194	0xbc7e87b4	-0.015535284
195	0xbcb46e45	-0.022025237
196	0xbba386d4	-0.004990438
197	0xbc6e845f	-0.014557927
198	0xbab243d3	-0.0013600535
199	0xbcea0fc1	-0.028571965
200	0xbc0fda49	-0.008780071
201	0xbcd8db75	-0.026471833
202	0xbb4bad6d	-0.0031078712
203	0x3c38ec8f	0.011286869
204	0xbc837eaa	-0.01605161
205	0x3c1b1bf0	0.00946711
206	0x3c01fdda	0.007934058
207	0xbc8a763f	-0.016902087
208	0xbcc3f709	-0.023921506
209	0xbc27004d	-0.010192943
210	0xbc4da6e1	-0.012551994
211	0xbab0e366	-0.0013495504
212	0xbc1ee73e	-0.009698687
213	0xbb851ad3	-0.0040620356
214	0x3c2226d8	0.009896956
215	0xbcb87f79	-0.022521721
216	0xbd09af42	-0.033614404
217	0xbc69a6a3	-0.014260921
218	0xbbbaf6cb	-0.0057056895
219	0x3c55728d	0.013027799
220	0x3b1219cf	0.0022293215
221	0xbcb3e2f3	-0.021958804
222	0x3b8a5fb6	0.0042228354
223	0x3b961482	0.0045800814
224	0xbc9ef0a2	-0.019401852
225	0xbcca5465	-0.024698446
226	0xbcae5855	-0.021282354
227	0xbbbe0a75	-0.0057995864
228	0xbc5b7507	-0.013394601
229	0x3b807a41	0.003920824
230	0xbb6c8f46	-0.003609614
231	0x3baa0c63	0.005189465
232	0xbc31e77b	-0.010858412
233	0xbb24f25c	-0.0025168872
234	0xbca57d17	-0.020201249
235	0xbcd33c2c	-0.025785528
236	0x3bdcccda	0.0067382874
237	0xbcac1243	-0.021004802
238	0xbd0b8b5f	-0.03406846
239	0x3bbba27c	0.0057261568
240	0xbc3d9602	-0.011571409
241	0xbc09fe4e	-0.008422447
242	0x3c539e36	0.012916138
243	0x3cda77d4	0.026668467
244	0x3ca0c92d	0.019627178
245	0x3bcaee5e	0.0061929664
246	0x3c9e679e	0.019336518
247	0x3c80869d	0.015689189
248	0x3ac32cb1	0.0014890638
249	0x3cba8760	0.02276963
250	0x3bd15436	0.0063882126
251	0x3c09d7a8	0.008413233
252	0x3c1931f4	0.009350289
253	0x3ce5627a	0.028001059
254	0xbbc2e3bc	-0.005947558
255	0x3c2106c1	0.00982827

out_2.1.weight f4 [1, 128, 3, 3]
0	0x3c53f990	0.012937918
1	0x3c384bdc	0.011248555
2	0x3c8f0494	0.017458238
3	0x3b820a31	0.0039685
4	0xbd0070cd	-0.031357575
5	0x3cc3178d	0.02381494
6	0x3cd775c0	0.026301265
7	0xbce8d1bf	-0.028420327
8	0xbab71275	-0.0013967293
9	0xbd062f6f	-0.03276008
10	0xbcee29d0	-0.029072672
11	0xbbc61699	-0.0060451743
12	0xbb0a0b83	-0.002106399
13	0xbc03c222	-0.00804189
14	0xbb5d32d5	-0.0033752222
15	0xba7fb31e	-0.00097541686
16	0x3c9e4cb1	0.019323679
17	0xbd013c32	-0.031551547
18	0x3cdc1049	0.026863234
19	0x3ba00bb1	0.004884206
20	0xbc443f31	-0.011977957
21	0xbb9f1dd1	-0.0048558493
22	0xbc823e20	-0.015898764
23	0xbc26dd2d	-0.010184568
24	0xbc02f090	-0.007991925
25	0xbcf809eb	-0.030278167
26	0xbba4723c	-0.0050185006
27	0x3c394c57	0.011309705
28	0xbbd051c9	-0.006357406
29	0xbcbb6df3	-0.022879576
30	0x3cced3d9	0.025247501
31	0xbc0cddf0	-0.008597836
32	0x3c653ee6	0.013992047
33	0xbc64ce36	-0.01396518
34	0x3c97d312	0.018533263
35	0xbc702f9d	-0.014659789
36	0xbce63f18	-0.028106257
37	0xbc87c733	-0.016574478
38	0x3cc468a7	0.023975683
39	0xbbed44ee	-0.007240883
40	0xbc649071	-0.013950453
41	0x3c9e61fe	0.019333836
42	0xbc8e05e8	-0.0173368
43	0x3c76294f	0.015024497
44	0x3c7945c8	0.015214391
45	0xbca89d84	-0.020582922
46	0xbcc43757	-0.02395217
47	0xbc79e3d5	-0.015252073
48	0x3c950f6d	0.018195832
49	0x3c78a281	0.015175463
50	0x3bd2a1c9	0.0064279777
51	0xbcc0e925	-0.023548672
52	0xbc4d055e	-0.012513487
53	0xbc4323e9	-0.011910417
54	0xbd05553f	-0.032552
55	0x3b9dc144	0.004814299
56	0xbd04658c	-0.032323405
57	0x3c837b16	0.016049903
58	0xbcc3b06a	-0.023887832
59	0x3c113112	0.008861797
60	0x3c993b89	0.018705146
61	0xbbab07dc	-0.005219443
62	0xbcc17fe9	-0.023620563
63	0xbbc875ef	-0.0061175744
64	0x3cb09f6b	0.021560391
65	0x3c2baf4a	0.010478804
66	0x3c670302	0.014099838
67	0x3bc25f4c	0.0059317704
68	0xbc03957f	-0.008031248
69	0xbc43029c	-0.011902478
70	0xbc91e716	-0.017810386
71	0x3b1b1ae9	0.0023667163
72	0xbcdad11d	-0.026711041
73	0xbc6f1c87	-0.014594204
74	0xbbc20838	-0.00592139
75	0x3c7c8d02	0.015414478
76	0xbcabd042	-0.020973329
77	0x3ca6410e	0.020294692
78	0xbcbb0166	-0.022827815
79	0xbc2bc40a	-0.010483751
80	0x3d01ad82	0.03165961
81	0xbbbd88a1	-0.0057841097
82	0x3caa9048	0.020820752
83	0x3c897d6c	0.016783439
84	0xbd3bd220	-0.045854688
85	0xbca3c564	-0.019991584
86	0x3cb5f165	0.022209832
87	0xbd2331f2	-0.039842553
88	0xbce36ee3	-0.027762836
89	0xbccfa267	-0.025345994
90	0x3bb3ace7	0.005483258
91	0xbc4d88c0	-0.012544811
92	0xbc959173	-0.018257832
93	0x3b9e8743	0.004837902
94	0x3cb8543f	0.02250111
95	0xbb5171f8	-0.00319588
96	0x3cb644b1	0.022249551
97	0xbb3546f3	-0.0027660697
98	0x3d166b77	0.03672358
99	0x3b825ada	0.0039781155
100	0x39ae44bd	0.0003323908
101	0xbc4eda7e	-0.012625335
102	0x3cbf4bd8	0.023351595
103	0x3cd92433	0.026506519
104	0xbc671123	-0.014103207
105	0x39c469ea	0.00037462945
106	0xbbe5ea0a	-0.007016425
107	0xbcb9e95a	-0.022694279
108	0x3a50773c	0.00079523376
109	0xbcdc4640	-0.026888967
110	0x3c70613d	0.014671621
111	0x3ce4dd2f	0.0279375
112	0x3ca5e6f9	0.020251738
113	0x3bc3e6ea	0.005978455
114	0xbc8c034b	-0.017091414
115	0x3caa2d12	0.020773444
116	0x3c2b8f11	0.010471121
117	0xbb3990dc	-0.0028315103
118	0x3c69ee6c	0.014278036
119	0xbd001363	-0.03126849
120	0xbc0123b1	-0.007882045
121	0xbaf995a0	-0.0019041784
122	0x3c50e583	0.012750032
123	0x3cb2289d	0.021747882
124	0x38a874ca	8.032618e-05
125	0xbb9171f8	-0.004438635
126	0x3d1a33f4	0.037647203
127	0x3a83d83b	0.0010058949
128	0xbcad1df3	-0.021132445
129	0xbc1ef119	-0.009701037
130	0x3b33d4d0	0.0027440079
131	0x3b8a1a4e	0.0042145615
132	0xbc483ff1	-0.012222276
133	0xbc2e9226	-0.010654962
134	0xbc9b0186	-0.018921625
135	0xba85369c	-0.001016337
136	0xbcc027a7	-0.023456408
137	0xbbdf438d	-0.0068134726
138	0x3ce0a1c3	0.027420884
139	0xbbf61f24	-0.0075110365
140	0xbcdcb67d	-0.026942486
141	0xbc1b0944	-0.009462658
142	0xbb086067	-0.0020809413
143	0x3cc9fba4	0.024656124
144	0xbcc17d8b	-0.023619434
145	0xbbfa62dc	-0.0076411795
146	0xbb7497cc	-0.0037321923
147	0xbcc0bbf5	-0.023527125
148	0xbcdecdad	-0.027197683
149	0xbcd2527a	-0.025674094
150	0x3c6a8459	0.014313781
151	0xbbaa88d3	-0.005204299
152	0xba93ada0	-0.0011266954
153	0x3d09ec2f	0.033672508
154	0xbb6259f3	-0.0034538477
155	0xbca84072	-0.020538542
156	0xbc34cb3d	-0.011034784
157	0xbc7b0b54	-0.015322525
158	0x3cdc8a32	0.026921365
159	0x3cfa5710	0.030559093
160	0xbc724e19	-0.014789128
161	0x3bb35169	0.0054723513
162	0x3c39b842	0.011335434
163	0x3d2868f5	0.04111572
164	0x3b9a38e0	0.004706487
165	0x3d3994b6	0.045307837
166	0x3d37afc6	0.044845365
167	0x3d090149	0.03344849
168	0xba5f2ba5	-0.00085132784
169	0xbb987565	-0.0046526664
170	0xba723468	-0.00092393765
171	0x3cd012a0	0.025399506
172	0x3c44be9f	0.012008338
173	0xbb5100ec	-0.0031891419
174	0xbc35a57c	-0.011086818
175	0xbb55505e	-0.0032549123
176	0xba6b83d2	-0.00089841813
177	0xbc0e7386	-0.008694535
178	0xbc8514b9	-0.016245233
179	0x3cd84ab9	0.026402818
180	0xbc584c1e	-0.0132017415
181	0x3b8c8491	0.004288264
182	0xbd049f05	-0.032378215
183	0xbd1b2cb7	-0.03788444
184	0xbc4a4723	-0.012346062
185	0x3c520ef8	0.012820952
186	0xbc90bd54	-0.017668404
187	0xbd0521b9	-0.032502864
188	0x3c9aae0d	0.018881822
189	0xbd0f4e72	-0.03498692
190	0xbd02b9a3	-0.03191532
191	0x3c06e50b	0.008233319
192	0xbce87fa0	-0.028381169
193	0xbcec2f18	-0.02883105
194	0xbc83fb36	-0.016110998
195	0xbcf10574	-0.029421546
196	0xbc6c599d	-0.014425662
197	0xbcd7ba5a	-0.026333977
198	0x3c6b97c2	0.014379444
199	0xbcc190c9	-0.02362861
200	0xbafb002c	-0.0019149831
201	0x3b8abf84	0.004234256
202	0xbcf4c3c8	-0.029878512
203	0x3c35cb2b	0.011095802
204	0x3c825421	0.015909256
205	0xbcb1124a	-0.021615166
206	0xbcdb7c6a	-0.026792724
207	0xbcaa6bdb	-0.020803383
208	0x3beaf2d3	0.00717006
209	0x3ca08da5	0.019598791
210	0x3b5bec23	0.0033557496
211	0x3c6bdb28	0.014395513
212	0x3b56b460	0.003276132
213	0x3cc34575	0.02383683
214	0x3c9218fc	0.01783418
215	0x3d02281d	0.031776536
216	0xbc070f64	-0.0082434155
217	0xbd0e2b18	-0.034709066
218	0x3c897141	0.016777636
219	0x3c6526c1	0.01398629
220	0xbd1936af	-0.037405666
221	0x3befc1a2	0.007316784
222	0x3af93997	0.0019014355
223	0xbada6ee9	-0.0016665134
224	0xbc96cac3	-0.018407231
225	0xbce33f81	-0.027740242
226	0x3b552d75	0.0032528315
227	0xbc1297f8	-0.008947365
228	0x3b934d45	0.004495295
229	0xbbf93eac	-0.007606348
230	0xbcadd589	-0.021219986
231	0xbc914c5e	-0.01773661
232	0xbbbb85a7	-0.0057227197
233	0xbcbd2a85	-0.023091564
234	0x3ca287fe	0.019840237
235	0x3d247a9a	0.040155984
236	0xba1168e0	-0.00055469386
237	0xbc7ecad6	-0.01555129
238	0x3d1ea7e5	0.038734335
239	0x3d153d4d	0.036435414
240	0x3cd01ab9	0.025403367
241	0x3c616963	0.013758036
242	0x3d334bce	0.043773465
243	0x3cbe2611	0.02321151
244	0xbc8b7e96	-0.017028134
245	0xbc8c670e	-0.017138984
246	0xbc823067	-0.01589222
247	0x3caeffe1	0.021362247
248	0x3c3f4b4d	0.011675668
249	0x3bc2b285	0.0059416913
250	0xbd13cd71	-0.036084596
251	0xbb2387a4	-0.0024952674
252	0x3c9b9d37	0.018995864
253	0xbcbce78e	-0.023059633
254	0xbc405398	-0.01173868
255	0x3af9c28d	0.0019055173
